…
      sampler {
        min_scale: 0.3
        max_scale: 1
        min_aspect_ratio: 0.5
        max_aspect_ratio: 2
      }
      sample_constraint {
        min_jaccard_overlap: 0.9
      }
      max_sample: 1
      max_trials: 50
    }
    batch_sampler {
      sampler {
        min_scale: 0.3
        max_scale: 1
        min_aspect_ratio: 0.5
        max_aspect_ratio: 2
      }
      sample_constraint {
        max_jaccard_overlap: 1
      }
      max_sample: 1
      max_trials: 50
    }
    label_map_file: "data/VOC2007/labelmap_voc.prototxt"
  }
}
layer {
  name: "conv1_1"
  type: "Convolution"
  bottom: "data"
  top: "conv1_1"
  param {
    lr_mult: 1
    decay_mult: 1
  }
  param {
    lr_mult: 2
    decay_mult: 0
  }
  convolution_param {
    num_output: 64
    pad: 1
    kernel_size: 3
    weight_filler {
      type: "xavier"
    }
    bias_filler {
      type: "constant"
      value: 0
    }
  }
}
layer {
  name: "relu1_1"
  type: "ReLU"
  bottom: "conv1_1"
  top: "conv1_1"
}
layer {
  name: "conv1_2"
  type: "Convolution"
  bottom: "conv1_1"
  top: "conv1_2"
  param {
    lr_mult: 1
    decay_mult: 1
  }
  param {
    lr_mult: 2
    decay_mult: 0
  }
  convolution_param {
    num_output: 64
    pad: 1
    kernel_size: 3
    weight_filler {
      type: "xavier"
    }
    bias_filler {
      type: "constant"
      value: 0
    }
  }
}
layer {
  name: "relu1_2"
  type: "ReLU"
  bottom: "conv1_2"
  top: "conv1_2"
}
layer {
  name: "pool1"
  type: "Pooling"
  bottom: "conv1_2"
  top: "pool1"
  pooling_param {
    pool: MAX
    kernel_size: 2
    stride: 2
  }
}
layer {
  name: "conv2_1"
  type: "Convolution"
  bottom: "pool1"
  top: "conv2_1"
  param {
    lr_mult: 1
    decay_mult: 1
  }
  param {
    lr_mult: 2
    decay_mult: 0
  }
  convolution_param {
    num_output: 128
    pad: 1
    kernel_size: 3
    weight_filler {
      type: "xavier"
    }
    bias_filler {
      type: "constant"
      value: 0
    }
  }
}
layer {
  name: "relu2_1"
  type: "ReLU"
  bottom: "conv2_1"
  top: "conv2_1"
}
layer {
  name: "conv2_2"
  type: "Convolution"
  bottom: "conv2_1"
  top: "conv2_2"
  param {
    lr_mult: 1
    decay_mult: 1
  }
  param {
    lr_mult: 2
    decay_mult: 0
  }
  convolution_param {
    num_output: 128
    pad: 1
    kernel_size: 3
    weight_filler {
      type: "xavier"
    }
    bias_filler {
      type: "constant"
      value: 0
    }
  }
}
layer {
  name: "relu2_2"
  type: "ReLU"
  bottom: "conv2_2"
  top: "conv2_2"
}
layer {
  name: "pool2"
  type: "Pooling"
  bottom: "conv2_2"
  top: "pool2"
  pooling_param {
    pool: MAX
    kernel_size: 2
    stride: 2
  }
}
layer {
  name: "conv3_1"
  type: "Convolution"
  bottom: "pool2"
  top: "conv3_1"
  param {
    lr_mult: 1
    decay_mult: 1
  }
  param {
    lr_mult: 2
    decay_mult: 0
  }
  convolution_param {
    num_output: 256
    pad: 1
    kernel_size: 3
    weight_filler {
      type: "xavier"
    }
    bias_filler {
      type: "constant"
      value: 0
    }
  }
}
layer {
  name: "relu3_1"
  type: "ReLU"
  bottom: "conv3_1"
  top: "conv3_1"
}
layer {
  name: "conv3_2"
  type: "Convolution"
  bottom: "conv3_1"
  top: "conv3_2"
  param {
    lr_mult: 1
    decay_mult: 1
  }
  param {
    lr_mult: 2
    decay_mult: 0
  }
  convolution_param {
    num_output: 256
    pad: 1
    kernel_size: 3
    weight_filler {
      type: "xavier"
    }
    bias_filler {
      type: "constant"
      value: 0
    }
  }
}
layer {
  name: "relu3_2"
  type: "ReLU"
  bottom: "conv3_2"
  top: "conv3_2"
}
layer {
  name: "conv3_3"
  type: "Convolution"
  bottom: "conv3_2"
  top: "conv3_3"
  param {
    lr_mult: 1
    decay_mult: 1
  }
  param {
    lr_mult: 2
    decay_mult: 0
  }
  convolution_param {
    num_output: 256
    pad: 1
    kernel_size: 3
    weight_filler {
      type: "xavier"
    }
    bias_filler {
      type: "constant"
      value: 0
    }
  }
}
layer {
  name: "relu3_3"
  type: "ReLU"
  bottom: "conv3_3"
  top: "conv3_3"
}
layer {
  name: "pool3"
  type: "Pooling"
  bottom: "conv3_3"
  top: "pool3"
  pooling_param {
    pool: MAX
    kernel_size: 2
    stride: 2
  }
}
layer {
  name: "conv4_1"
  type: "Convolution"
  bottom: "pool3"
  top: "conv4_1"
  param {
    lr_mult: 1
    decay_mult: 1
  }
  param {
    lr_mult: 2
    decay_mult: 0
  }
  convolution_param {
    num_output: 512
    pad: 1
    kernel_size: 3
    weight_filler {
      type: "xavier"
    }
    bias_filler {
      type: "constant"
      value: 0
    }
  }
}
layer {
  name: "relu4_1"
  type: "ReLU"
  bottom: "conv4_1"
  top: "conv4_1"
}
layer {
  name: "conv4_2"
  type: "Convolution"
  bottom: "conv4_1"
  top: "conv4_2"
  param {
    lr_mult: 1
    decay_mult: 1
  }
  param {
    lr_mult: 2
    decay_mult: 0
  }
  convolution_param {
    num_output: 512
    pad: 1
    kernel_size: 3
    weight_filler {
      type: "xavier"
    }
    bias_filler {
      type: "constant"
      value: 0
    }
  }
}
layer {
  name: "relu4_2"
  type: "ReLU"
  bottom: "conv4_2"
  top: "conv4_2"
}
layer {
  name: "conv4_3"
  type: "Convolution"
  bottom: "conv4_2"
  top: "conv4_3"
  param {
    lr_mult: 1
    decay_mult: 1
  }
  param {
    lr_mult: 2
    decay_mult: 0
  }
  convolution_param {
    num_output: 512
    pad: 1
    kernel_size: 3
    weight_filler {
      type: "xavier"
    }
    bias_filler {
      type: "constant"
      value: 0
    }
  }
}
layer {
  name: "relu4_3"
  type: "ReLU"
  bottom: "conv4_3"
  top: "conv4_3"
}
layer {
  name: "pool4"
  type: "Pooling"
  bottom: "conv4_3"
  top: "pool4"
  pooling_param {
    pool: MAX
    kernel_size: 2
    stride: 2
  }
}
layer {
  name: "conv5_1"
  type: "Convolution"
  bottom: "pool4"
  top: "conv5_1"
  param {
    lr_mult: 1
    decay_mult: 1
  }
  param {
    lr_mult: 2
    decay_mult: 0
  }
  convolution_param {
    num_output: 512
    pad: 1
    kernel_size: 3
    weight_filler {
      type: "xavier"
    }
    bias_filler {
      type: "constant"
      value: 0
    }
    dilation: 1
  }
}
layer {
  name: "relu5_1"
  type: "ReLU"
  bottom: "conv5_1"
  top: "conv5_1"
}
layer {
  name: "conv5_2"
  type: "Convolution"
  bottom: "conv5_1"
  top: "conv5_2"
  param {
    lr_mult: 1
    decay_mult: 1
  }
  param {
    lr_mult: 2
    decay_mult: 0
  }
  convolution_param {
    num_output: 512
    pad: 1
    kernel_size: 3
    weight_filler {
      type: "xavier"
    }
    bias_filler {
      type: "constant"
      value: 0
    }
    dilation: 1
  }
}
layer {
  name: "relu5_2"
  type: "ReLU"
  bottom: "conv5_2"
  top: "conv5_2"
}
layer {
  name: "conv5_3"
  type: "Convolution"
  bottom: "conv5_2"
  top: "conv5_3"
  param {
    lr_mult: 1
    decay_mult: 1
  }
  param {
    lr_mult: 2
    decay_mult: 0
  }
  convolution_param {
    num_output: 512
    pad: 1
    kernel_size: 3
    weight_filler {
      type: "xavier"
    }
    bias_filler {
      type: "constant"
      value: 0
    }
    dilation: 1
  }
}
layer {
  name: "relu5_3"
  type: "ReLU"
  bottom: "conv5_3"
  top: "conv5_3"
}
layer {
  name: "pool5"
  type: "Pooling"
  bottom: "conv5_3"
  top: "pool5"
  pooling_param {
    pool: MAX
    kernel_size: 3
    stride: 1
    pad: 1
  }
}
layer {
  name: "fc6"
  type: "Convolution"
  bottom: "pool5"
  top: "fc6"
  param {
    lr_mult: 1
    decay_mult: 1
  }
  param {
    lr_mult: 2
    decay_mult: 0
  }
  convolution_param {
    num_output: 1024
    pad: 6
    kernel_size: 3
    weight_filler {
      type: "xavier"
    }
    bias_filler {
      type: "constant"
      value: 0
    }
    dilation: 6
  }
}
layer {
  name: "relu6"
  type: "ReLU"
  bottom: "fc6"
  top: "fc6"
}
layer {
  name: "fc7"
  type: "Convolution"
  bottom: "fc6"
  top: "fc7"
  param {
    lr_mult: 1
    decay_mult: 1
  }
  param {
    lr_mult: 2
    decay_mult: 0
  }
  convolution_param {
    num_output: 1024
    kernel_size: 1
    weight_filler {
      type: "xavier"
    }
    bias_filler {
      type: "constant"
      value: 0
    }
  }
}
layer {
  name: "relu7"
  type: "ReLU"
  bottom: "fc7"
  top: "fc7"
}
layer {
  name: "conv6_1"
  type: "Convolution"
  bottom: "fc7"
  top: "conv6_1"
  param {
    lr_mult: 1
    decay_mult: 1
  }
  param {
    lr_mult: 2
    decay_mult: 0
  }
  convolution_param {
    num_output: 256
    pad: 0
    kernel_size: 1
    stride: 1
    weight_filler {
      type: "xavier"
    }
    bias_filler {
      type: "constant"
      value: 0
    }
  }
}
layer {
  name: "conv6_1_relu"
  type: "ReLU"
  bottom: "conv6_1"
  top: "conv6_1"
}
layer {
  name: "conv6_2"
  type: "Convolution"
  bottom: "conv6_1"
  top: "conv6_2"
  param {
    lr_mult: 1
    decay_mult: 1
  }
  param {
    lr_mult: 2
    decay_mult: 0
  }
  convolution_param {
    num_output: 512
    pad: 1
    kernel_size: 3
    stride: 2
    weight_filler {
      type: "xavier"
    }
    bias_filler {
      type: "constant"
      value: 0
    }
  }
}
layer {
  name: "conv6_2_relu"
  type: "ReLU"
  bottom: "conv6_2"
  top: "conv6_2"
}
layer {
  name: "conv7_1"
  type: "Convolution"
  bottom: "conv6_2"
  top: "conv7_1"
  param {
    lr_mult: 1
    decay_mult: 1
  }
  param {
    lr_mult: 2
    decay_mult: 0
  }
  convolution_param {
    num_output: 128
    pad: 0
    kernel_size: 1
    stride: 1
    weight_filler {
      type: "xavier"
    }
    bias_filler {
      type: "constant"
      value: 0
    }
  }
}
layer {
  name: "conv7_1_relu"
  type: "ReLU"
  bottom: "conv7_1"
  top: "conv7_1"
}
layer {
  name: "conv7_2"
  type: "Convolution"
  bottom: "conv7_1"
  top: "conv7_2"
  param {
    lr_mult: 1
    decay_mult: 1
  }
  param {
    lr_mult: 2
    decay_mult: 0
  }
  convolution_param {
    num_output: 256
    pad: 1
    kernel_size: 3
    stride: 2
    weight_filler {
      type: "xavier"
    }
    bias_filler {
      type: "constant"
      value: 0
    }
  }
}
layer {
  name: "conv7_2_relu"
  type: "ReLU"
  bottom: "conv7_2"
  top: "conv7_2"
}
layer {
  name: "conv8_1"
  type: "Convolution"
  bottom: "conv7_2"
  top: "conv8_1"
  param {
    lr_mult: 1
    decay_mult: 1
  }
  param {
    lr_mult: 2
    decay_mult: 0
  }
  convolution_param {
    num_output: 128
    pad: 0
    kernel_size: 1
    stride: 1
    weight_filler {
      type: "xavier"
    }
    bias_filler {
      type: "constant"
      value: 0
    }
  }
}
layer {
  name: "conv8_1_relu"
  type: "ReLU"
  bottom: "conv8_1"
  top: "conv8_1"
}
layer {
  name: "conv8_2"
  type: "Convolution"
  bottom: "conv8_1"
  top: "conv8_2"
  param {
    lr_mult: 1
    decay_mult: 1
  }
  param {
    lr_mult: 2
    decay_mult: 0
  }
  convolution_param {
    num_output: 256
    pad: 0
    kernel_size: 3
    stride: 1
    weight_filler {
      type: "xavier"
    }
    bias_filler {
      type: "constant"
      value: 0
    }
  }
}
layer {
  name: "conv8_2_relu"
  type: "ReLU"
  bottom: "conv8_2"
  top: "conv8_2"
}
layer {
  name: "conv9_1"
  type: "Convolution"
  bottom: "conv8_2"
  top: "conv9_1"
  param {
    lr_mult: 1
    decay_mult: 1
  }
  param {
    lr_mult: 2
    decay_mult: 0
  }
  convolution_param {
    num_output: 128
    pad: 0
    kernel_size: 1
    stride: 1
    weight_filler {
      type: "xavier"
    }
    bias_filler {
      type: "constant"
      value: 0
    }
  }
}
layer {
  name: "conv9_1_relu"
  type: "ReLU"
  bottom: "conv9_1"
  top: "conv9_1"
}
layer {
  name: "conv9_2"
  type: "Convolution"
  bottom: "conv9_1"
  top: "conv9_2"
  param {
    lr_mult: 1
    decay_mult: 1
  }
  param {
    lr_mult: 2
    decay_mult: 0
  }
  convolution_param {
    num_output: 256
    pad: 0
    kernel_size: 3
    stride: 1
    weight_filler {
      type: "xavier"
    }
    bias_filler {
      type: "constant"
      value: 0
    }
  }
}
layer {
  name: "conv9_2_relu"
  type: "ReLU"
  bottom: "conv9_2"
  top: "conv9_2"
}
layer {
  name: "conv4_3_norm"
  type: "Normalize"
  bottom: "conv4_3"
  top: "conv4_3_norm"
  norm_param {
    across_spatial: false
    scale_filler {
      type: "constant"
      value: 20
    }
    channel_shared: false
  }
}
layer {
  name: "conv4_3_norm_mbox_loc"
  type: "Convolution"
  bottom: "conv4_3_norm"
  top: "conv4_3_norm_mbox_loc"
  param {
    lr_mult: 1
    decay_mult: 1
  }
  param {
    lr_mult: 2
    decay_mult: 0
  }
  convolution_param {
    num_output: 16
    pad: 1
    kernel_size: 3
    stride: 1
    weight_filler {
      type: "xavier"
    }
    bias_filler {
      type: "constant"
      value: 0
    }
  }
}
layer {
  name: "conv4_3_norm_mbox_loc_perm"
  type: "Permute"
  bottom: "conv4_3_norm_mbox_loc"
  top: "conv4_3_norm_mbox_loc_perm"
  permute_param {
    order: 0
    order: 2
    order: 3
    order: 1
  }
}
layer {
  name: "conv4_3_norm_mbox_loc_flat"
  type: "Flatten"
  bottom: "conv4_3_norm_mbox_loc_perm"
  top: "conv4_3_norm_mbox_loc_flat"
  flatten_param {
    axis: 1
  }
}
layer {
  name: "conv4_3_norm_mbox_conf"
  type: "Convolution"
  bottom: "conv4_3_norm"
  top: "conv4_3_norm_mbox_conf"
  param {
    lr_mult: 1
    decay_mult: 1
  }
  param {
    lr_mult: 2
    decay_mult: 0
  }
  convolution_param {
    num_output: 8
    pad: 1
    kernel_size: 3
    stride: 1
    weight_filler {
      type: "xavier"
    }
    bias_filler {
      type: "constant"
      value: 0
    }
  }
}
layer {
  name: "conv4_3_norm_mbox_conf_perm"
  type: "Permute"
  bottom: "conv4_3_norm_mbox_conf"
  top: "conv4_3_norm_mbox_conf_perm"
  permute_param {
    order: 0
    order: 2
    order: 3
    order: 1
  }
}
layer {
  name: "conv4_3_norm_mbox_conf_flat"
  type: "Flatten"
  bottom: "conv4_3_norm_mbox_conf_perm"
  top: "conv4_3_norm_mbox_conf_flat"
  flatten_param {
    axis: 1
  }
}
layer {
  name: "conv4_3_norm_mbox_priorbox"
  type: "PriorBox"
  bottom: "conv4_3_norm"
  bottom: "data"
  top: "conv4_3_norm_mbox_priorbox"
  prior_box_param {
    min_size: 21
    max_size: 45
    aspect_ratio: 2
    flip: true
    clip: false
    variance: 0.1
    variance: 0.1
    variance: 0.2
    variance: 0.2
    step: 8
    offset: 0.5
  }
}
layer {
  name: "fc7_mbox_loc"
  type: "Convolution"
  bottom: "fc7"
  top: "fc7_mbox_loc"
  param {
    lr_mult: 1
    decay_mult: 1
  }
  param {
    lr_mult: 2
    decay_mult: 0
  }
  convolution_param {
    num_output: 24
    pad: 1
    kernel_size: 3
    stride: 1
    weight_filler {
      type: "xavier"
    }
    bias_filler {
      type: "constant"
      value: 0
    }
  }
}
layer {
  name: "fc7_mbox_loc_perm"
  type: "Permute"
  bottom: "fc7_mbox_loc"
  top: "fc7_mbox_loc_perm"
  permute_param {
    order: 0
    order: 2
    order: 3
    order: 1
  }
}
layer {
  name: "fc7_mbox_loc_flat"
  type: "Flatten"
  bottom: "fc7_mbox_loc_perm"
  top: "fc7_mbox_loc_flat"
  flatten_param {
    axis: 1
  }
}
layer {
  name: "fc7_mbox_conf"
  type: "Convolution"
  bottom: "fc7"
  top: "fc7_mbox_conf"
  param {
    lr_mult: 1
    decay_mult: 1
  }
  param {
    lr_mult: 2
    decay_mult: 0
  }
  convolution_param {
    num_output: 12
    pad: 1
    kernel_size: 3
    stride: 1
    weight_filler {
      type: "xavier"
    }
    bias_filler {
      type: "constant"
      value: 0
    }
  }
}
layer {
  name: "fc7_mbox_conf_perm"
  type: "Permute"
  bottom: "fc7_mbox_conf"
  top: "fc7_mbox_conf_perm"
  permute_param {
    order: 0
    order: 2
    order: 3
    order: 1
  }
}
layer {
  name: "fc7_mbox_conf_flat"
  type: "Flatten"
  bottom: "fc7_mbox_conf_perm"
  top: "fc7_mbox_conf_flat"
  flatten_param {
    axis: 1
  }
}
layer {
  name: "fc7_mbox_priorbox"
  type: "PriorBox"
  bottom: "fc7"
  bottom: "data"
  top: "fc7_mbox_priorbox"
  prior_box_param {
    min_size: 45
    max_size: 99
    aspect_ratio: 2
    aspect_ratio: 3
    flip: true
    clip: false
    variance: 0.1
    variance: 0.1
    variance: 0.2
    variance: 0.2
    step: 16
    offset: 0.5
  }
}
layer {
  name: "conv6_2_mbox_loc"
  type: "Convolution"
  bottom: "conv6_2"
  top: "conv6_2_mbox_loc"
  param {
    lr_mult: 1
    decay_mult: 1
  }
  param {
    lr_mult: 2
    decay_mult: 0
  }
  convolution_param {
    num_output: 24
    pad: 1
    kernel_size: 3
    stride: 1
    weight_filler {
      type: "xavier"
    }
    bias_filler {
      type: "constant"
      value: 0
    }
  }
}
layer {
  name: "conv6_2_mbox_loc_perm"
  type: "Permute"
  bottom: "conv6_2_mbox_loc"
  top: "conv6_2_mbox_loc_perm"
  permute_param {
    order: 0
    order: 2
    order: 3
    order: 1
  }
}
layer {
  name: "conv6_2_mbox_loc_flat"
  type: "Flatten"
  bottom: "conv6_2_mbox_loc_perm"
  top: "conv6_2_mbox_loc_flat"
  flatten_param {
    axis: 1
  }
}
layer {
  name: "conv6_2_mbox_conf"
  type: "Convolution"
  bottom: "conv6_2"
  top: "conv6_2_mbox_conf"
  param {
    lr_mult: 1
    decay_mult: 1
  }
  param {
    lr_mult: 2
    decay_mult: 0
  }
  convolution_param {
    num_output: 12
    pad: 1
    kernel_size: 3
    stride: 1
    weight_filler {
      type: "xavier"
    }
    bias_filler {
      type: "constant"
      value: 0
    }
  }
}
layer {
  name: "conv6_2_mbox_conf_perm"
  type: "Permute"
  bottom: "conv6_2_mbox_conf"
  top: "conv6_2_mbox_conf_perm"
  permute_param {
    order: 0
    order: 2
    order: 3
    order: 1
  }
}
layer {
  name: "conv6_2_mbox_conf_flat"
  type: "Flatten"
  bottom: "conv6_2_mbox_conf_perm"
  top: "conv6_2_mbox_conf_flat"
  flatten_param {
    axis: 1
  }
}
layer {
  name: "conv6_2_mbox_priorbox"
  type: "PriorBox"
  bottom: "conv6_2"
  bottom: "data"
  top: "conv6_2_mbox_priorbox"
  prior_box_param {
    min_size: 99
    max_size: 153
    aspect_ratio: 2
    aspect_ratio: 3
    flip: true
    clip: false
    variance: 0.1
    variance: 0.1
    variance: 0.2
    variance: 0.2
    step: 32
    offset: 0.5
  }
}
layer {
  name: "conv7_2_mbox_loc"
  type: "Convolution"
  bottom: "conv7_2"
  top: "conv7_2_mbox_loc"
  param {
    lr_mult: 1
    decay_mult: 1
  }
  param {
    lr_mult: 2
    decay_mult: 0
  }
  convolution_param {
    num_output: 24
    pad: 1
    kernel_size: 3
    stride: 1
    weight_filler {
      type: "xavier"
    }
    bias_filler {
      type: "constant"
      value: 0
    }
  }
}
layer {
  name: "conv7_2_mbox_loc_perm"
  type: "Permute"
  bottom: "conv7_2_mbox_loc"
  top: "conv7_2_mbox_loc_perm"
  permute_param {
    order: 0
    order: 2
    order: 3
    order: 1
  }
}
layer {
  name: "conv7_2_mbox_loc_flat"
  type: "Flatten"
  bottom: "conv7_2_mbox_loc_perm"
  top: "conv7_2_mbox_loc_flat"
  flatten_param {
    axis: 1
  }
}
layer {
  name: "conv7_2_mbox_conf"
  type: "Convolution"
  bottom: "conv7_2"
  top: "conv7_2_mbox_conf"
  param {
    lr_mult: 1
    decay_mult: 1
  }
  param {
    lr_mult: 2
    decay_mult: 0
  }
  convolution_param {
    num_output: 12
    pad: 1
    kernel_size: 3
    stride: 1
    weight_filler {
      type: "xavier"
    }
    bias_filler {
      type: "constant"
      value: 0
    }
  }
}
layer {
  name: "conv7_2_mbox_conf_perm"
  type: "Permute"
  bottom: "conv7_2_mbox_conf"
  top: "conv7_2_mbox_conf_perm"
  permute_param {
    order: 0
    order: 2
    order: 3
    order: 1
  }
}
layer {
  name: "conv7_2_mbox_conf_flat"
  type: "Flatten"
  bottom: "conv7_2_mbox_conf_perm"
  top: "conv7_2_mbox_conf_flat"
  flatten_param {
    axis: 1
  }
}
layer {
  name: "conv7_2_mbox_priorbox"
  type: "PriorBox"
  bottom: "conv7_2"
  bottom: "data"
  top: "conv7_2_mbox_priorbox"
  prior_box_param {
    min_size: 153
    max_size: 207
    aspect_ratio: 2
    aspect_ratio: 3
    flip: true
    clip: false
    variance: 0.1
    variance: 0.1
    variance: 0.2
    variance: 0.2
    step: 64
    offset: 0.5
  }
}
layer {
  name: "conv8_2_mbox_loc"
  type: "Convolution"
  bottom: "conv8_2"
  top: "conv8_2_mbox_loc"
  param {
    lr_mult: 1
    decay_mult: 1
  }
  param {
    lr_mult: 2
    decay_mult: 0
  }
  convolution_param {
    num_output: 16
    pad: 1
    kernel_size: 3
    stride: 1
    weight_filler {
      type: "xavier"
    }
    bias_filler {
      type: "constant"
      value: 0
    }
  }
}
layer {
  name: "conv8_2_mbox_loc_perm"
  type: "Permute"
  bottom: "conv8_2_mbox_loc"
  top: "conv8_2_mbox_loc_perm"
  permute_param {
    order: 0
    order: 2
    order: 3
    order: 1
  }
}
layer {
  name: "conv8_2_mbox_loc_flat"
  type: "Flatten"
  bottom: "conv8_2_mbox_loc_perm"
  top: "conv8_2_mbox_loc_flat"
  flatten_param {
    axis: 1
  }
}
layer {
  name: "conv8_2_mbox_conf"
  type: "Convolution"
  bottom: "conv8_2"
  top: "conv8_2_mbox_conf"
  param {
    lr_mult: 1
    decay_mult: 1
  }
  param {
    lr_mult: 2
    decay_mult: 0
  }
  convolution_param {
    num_output: 8
    pad: 1
    kernel_size: 3
    stride: 1
    weight_filler {
      type: "xavier"
    }
    bias_filler {
      type: "constant"
      value: 0
    }
  }
}
layer {
  name: "conv8_2_mbox_conf_perm"
  type: "Permute"
  bottom: "conv8_2_mbox_conf"
  top: "conv8_2_mbox_conf_perm"
  permute_param {
    order: 0
    order: 2
    order: 3
    order: 1
  }
}
layer {
  name: "conv8_2_mbox_conf_flat"
  type: "Flatten"
  bottom: "conv8_2_mbox_conf_perm"
  top: "conv8_2_mbox_conf_flat"
  flatten_param {
    axis: 1
  }
}
layer {
  name: "conv8_2_mbox_priorbox"
  type: "PriorBox"
  bottom: "conv8_2"
  bottom: "data"
  top: "conv8_2_mbox_priorbox"
  prior_box_param {
    min_size: 207
    max_size: 261
    aspect_ratio: 2
    flip: true
    clip: false
    variance: 0.1
    variance: 0.1
    variance: 0.2
    variance: 0.2
    step: 100
    offset: 0.5
  }
}
layer {
  name: "conv9_2_mbox_loc"
  type: "Convolution"
  bottom: "conv9_2"
  top: "conv9_2_mbox_loc"
  param {
    lr_mult: 1
    decay_mult: 1
  }
  param {
    lr_mult: 2
    decay_mult: 0
  }
  convolution_param {
    num_output: 16
    pad: 1
    kernel_size: 3
    stride: 1
    weight_filler {
      type: "xavier"
    }
    bias_filler {
      type: "constant"
      value: 0
    }
  }
}
layer {
  name: "conv9_2_mbox_loc_perm"
  type: "Permute"
  bottom: "conv9_2_mbox_loc"
  top: "conv9_2_mbox_loc_perm"
  permute_param {
    order: 0
    order: 2
    order: 3
    order: 1
  }
}
layer {
  name: "conv9_2_mbox_loc_flat"
  type: "Flatten"
  bottom: "conv9_2_mbox_loc_perm"
  top: "conv9_2_mbox_loc_flat"
  flatten_param {
    axis: 1
  }
}
layer {
  name: "conv9_2_mbox_conf"
  type: "Convolution"
  bottom: "conv9_2"
  top: "conv9_2_mbox_conf"
  param {
    lr_mult: 1
    decay_mult: 1
  }
  param {
    lr_mult: 2
    decay_mult: 0
  }
  convolution_param {
    num_output: 8
    pad: 1
    kernel_size: 3
    stride: 1
    weight_filler {
      type: "xavier"
    }
    bias_filler {
      type: "constant"
      value: 0
    }
  }
}
layer {
  name: "conv9_2_mbox_conf_perm"
  type: "Permute"
  bottom: "conv9_2_mbox_conf"
  top: "conv9_2_mbox_conf_perm"
  permute_param {
    order: 0
    order: 2
    order: 3
    order: 1
  }
}
layer {
  name: "conv9_2_mbox_conf_flat"
  type: "Flatten"
  bottom: "conv9_2_mbox_conf_perm"
  top: "conv9_2_mbox_conf_flat"
  flatten_param {
    axis: 1
  }
}
layer {
  name: "conv9_2_mbox_priorbox"
  type: "PriorBox"
  bottom: "conv9_2"
  bottom: "data"
  top: "conv9_2_mbox_priorbox"
  prior_box_param {
    min_size: 261
    max_size: 315
    aspect_ratio: 2
    flip: true
    clip: false
    variance: 0.1
    variance: 0.1
    variance: 0.2
    variance: 0.2
    step: 300
    offset: 0.5
  }
}
layer {
  name: "mbox_loc"
  type: "Concat"
  bottom: "conv4_3_norm_mbox_loc_flat"
  bottom: "fc7_mbox_loc_flat"
  bottom: "conv6_2_mbox_loc_flat"
  bottom: "conv7_2_mbox_loc_flat"
  bottom: "conv8_2_mbox_loc_flat"
  bottom: "conv9_2_mbox_loc_flat"
  top: "mbox_loc"
  concat_param {
    axis: 1
  }
}
layer {
  name: "mbox_conf"
  type: "Concat"
  bottom: "conv4_3_norm_mbox_conf_flat"
  bottom: "fc7_mbox_conf_flat"
  bottom: "conv6_2_mbox_conf_flat"
  bottom: "conv7_2_mbox_conf_flat"
  bottom: "conv8_2_mbox_conf_flat"
  bottom: "conv9_2_mbox_conf_flat"
  top: "mbox_conf"
  concat_param {
    axis: 1
  }
}
layer {
  name: "mbox_priorbox"
  type: "Concat"
  bottom: "conv4_3_norm_mbox_priorbox"
  bottom: "fc7_mbox_priorbox"
  bottom: "conv6_2_mbox_priorbox"
  bottom: "conv7_2_mbox_priorbox"
  bottom: "conv8_2_mbox_priorbox"
  bottom: "conv9_2_mbox_priorbox"
  top: "mbox_priorbox"
  concat_param {
    axis: 2
  }
}
layer {
  name: "mbox_loss"
  type: "MultiBoxFocalLoss"
  bottom: "mbox_loc"
  bottom: "mbox_conf"
  bottom: "mbox_priorbox"
  bottom: "label"
  top: "mbox_loss"
  include {
    phase: TRAIN
  }
  propagate_down: true
  propagate_down: true
  propagate_down: false
  propagate_down: false
  loss_param {
    normalization: VALID
  }
  focal_loss_param {
    alpha: 0.25
    gamma: 2
  }
  multibox_loss_param {
    loc_loss_type: SMOOTH_L1
    conf_loss_type: SOFTMAX
    loc_weight: 1
    num_classes: 2
    share_location: true
    match_type: PER_PREDICTION
    overlap_threshold: 0.5
    use_prior_for_matching: true
    background_label_id: 0
    use_difficult_gt: true
    neg_pos_ratio: 3
    neg_overlap: 0.5
    code_type: CENTER_SIZE
    ignore_cross_boundary_bbox: false
    mining_type: NONE
  }
}
I0705 12:46:31.195829  1385 layer_factory.hpp:77] Creating layer data
I0705 12:46:31.195973  1385 net.cpp:100] Creating Layer data
I0705 12:46:31.195986  1385 net.cpp:408] data -> data
I0705 12:46:31.196015  1385 net.cpp:408] data -> label
I0705 12:46:31.196475  1399 db_lmdb.cpp:35] Opened lmdb examples/VOC2007/VOC2007_trainval_lmdb
I0705 12:46:31.219022  1385 annotated_data_layer.cpp:62] output data size: 32,3,300,300
I0705 12:46:31.280215  1385 net.cpp:150] Setting up data
I0705 12:46:31.280267  1385 net.cpp:157] Top shape: 32 3 300 300 (8640000)
I0705 12:46:31.280272  1385 net.cpp:157] Top shape: 1 1 41 8 (328)
I0705 12:46:31.280273  1385 net.cpp:165] Memory required for data: 34561312
I0705 12:46:31.280289  1385 layer_factory.hpp:77] Creating layer data_data_0_split
I0705 12:46:31.280329  1385 net.cpp:100] Creating Layer data_data_0_split
I0705 12:46:31.280336  1385 net.cpp:434] data_data_0_split <- data
I0705 12:46:31.280364  1385 net.cpp:408] data_data_0_split -> data_data_0_split_0
I0705 12:46:31.280387  1385 net.cpp:408] data_data_0_split -> data_data_0_split_1
I0705 12:46:31.280395  1385 net.cpp:408] data_data_0_split -> data_data_0_split_2
I0705 12:46:31.280401  1385 net.cpp:408] data_data_0_split -> data_data_0_split_3
I0705 12:46:31.280406  1385 net.cpp:408] data_data_0_split -> data_data_0_split_4
I0705 12:46:31.280411  1385 net.cpp:408] data_data_0_split -> data_data_0_split_5
I0705 12:46:31.280418  1385 net.cpp:408] data_data_0_split -> data_data_0_split_6
I0705 12:46:31.280503  1385 net.cpp:150] Setting up data_data_0_split
I0705 12:46:31.280508  1385 net.cpp:157] Top shape: 32 3 300 300 (8640000)
I0705 12:46:31.280524  1385 net.cpp:157] Top shape: 32 3 300 300 (8640000)
I0705 12:46:31.280526  1385 net.cpp:157] Top shape: 32 3 300 300 (8640000)
I0705 12:46:31.280531  1385 net.cpp:157] Top shape: 32 3 300 300 (8640000)
I0705 12:46:31.280535  1385 net.cpp:157] Top shape: 32 3 300 300 (8640000)
I0705 12:46:31.280540  1385 net.cpp:157] Top shape: 32 3 300 300 (8640000)
I0705 12:46:31.280545  1385 net.cpp:157] Top shape: 32 3 300 300 (8640000)
I0705 12:46:31.280547  1385 net.cpp:165] Memory required for data: 276481312
I0705 12:46:31.280552  1385 layer_factory.hpp:77] Creating layer conv1_1
I0705 12:46:31.280568  1385 net.cpp:100] Creating Layer conv1_1
I0705 12:46:31.280572  1385 net.cpp:434] conv1_1 <- data_data_0_split_0
I0705 12:46:31.280577  1385 net.cpp:408] conv1_1 -> conv1_1
I0705 12:46:31.493111  1385 net.cpp:150] Setting up conv1_1
I0705 12:46:31.493149  1385 net.cpp:157] Top shape: 32 64 300 300 (184320000)
I0705 12:46:31.493152  1385 net.cpp:165] Memory required for data: 1013761312
I0705 12:46:31.493171  1385 layer_factory.hpp:77] Creating layer relu1_1
I0705 12:46:31.493182  1385 net.cpp:100] Creating Layer relu1_1
I0705 12:46:31.493188  1385 net.cpp:434] relu1_1 <- conv1_1
I0705 12:46:31.493193  1385 net.cpp:395] relu1_1 -> conv1_1 (in-place)
I0705 12:46:31.493340  1385 net.cpp:150] Setting up relu1_1
I0705 12:46:31.493347  1385 net.cpp:157] Top shape: 32 64 300 300 (184320000)
I0705 12:46:31.493350  1385 net.cpp:165] Memory required for data: 1751041312
I0705 12:46:31.493352  1385 layer_factory.hpp:77] Creating layer conv1_2
I0705 12:46:31.493366  1385 net.cpp:100] Creating Layer conv1_2
I0705 12:46:31.493369  1385 net.cpp:434] conv1_2 <- conv1_1
I0705 12:46:31.493376  1385 net.cpp:408] conv1_2 -> conv1_2
I0705 12:46:31.495359  1385 net.cpp:150] Setting up conv1_2
I0705 12:46:31.495375  1385 net.cpp:157] Top shape: 32 64 300 300 (184320000)
I0705 12:46:31.495378  1385 net.cpp:165] Memory required for data: 2488321312
I0705 12:46:31.495390  1385 layer_factory.hpp:77] Creating layer relu1_2
I0705 12:46:31.495401  1385 net.cpp:100] Creating Layer relu1_2
I0705 12:46:31.495406  1385 net.cpp:434] relu1_2 <- conv1_2
I0705 12:46:31.495414  1385 net.cpp:395] relu1_2 -> conv1_2 (in-place)
I0705 12:46:31.495551  1385 net.cpp:150] Setting up relu1_2
I0705 12:46:31.495559  1385 net.cpp:157] Top shape: 32 64 300 300 (184320000)
I0705 12:46:31.495561  1385 net.cpp:165] Memory required for data: 3225601312
I0705 12:46:31.495564  1385 layer_factory.hpp:77] Creating layer pool1
I0705 12:46:31.495576  1385 net.cpp:100] Creating Layer pool1
I0705 12:46:31.495581  1385 net.cpp:434] pool1 <- conv1_2
I0705 12:46:31.495587  1385 net.cpp:408] pool1 -> pool1
I0705 12:46:31.495664  1385 net.cpp:150] Setting up pool1
I0705 12:46:31.495671  1385 net.cpp:157] Top shape: 32 64 150 150 (46080000)
I0705 12:46:31.495673  1385 net.cpp:165] Memory required for data: 3409921312
I0705 12:46:31.495676  1385 layer_factory.hpp:77] Creating layer conv2_1
I0705 12:46:31.495688  1385 net.cpp:100] Creating Layer conv2_1
I0705 12:46:31.495693  1385 net.cpp:434] conv2_1 <- pool1
I0705 12:46:31.495700  1385 net.cpp:408] conv2_1 -> conv2_1
I0705 12:46:31.497246  1385 net.cpp:150] Setting up conv2_1
I0705 12:46:31.497289  1385 net.cpp:157] Top shape: 32 128 150 150 (92160000)
I0705 12:46:31.497292  1385 net.cpp:165] Memory required for data: 3778561312
I0705 12:46:31.497303  1385 layer_factory.hpp:77] Creating layer relu2_1
I0705 12:46:31.497313  1385 net.cpp:100] Creating Layer relu2_1
I0705 12:46:31.497318  1385 net.cpp:434] relu2_1 <- conv2_1
I0705 12:46:31.497326  1385 net.cpp:395] relu2_1 -> conv2_1 (in-place)
I0705 12:46:31.497493  1385 net.cpp:150] Setting up relu2_1
I0705 12:46:31.497503  1385 net.cpp:157] Top shape: 32 128 150 150 (92160000)
I0705 12:46:31.497504  1385 net.cpp:165] Memory required for data: 4147201312
I0705 12:46:31.497509  1385 layer_factory.hpp:77] Creating layer conv2_2
I0705 12:46:31.497527  1385 net.cpp:100] Creating Layer conv2_2
I0705 12:46:31.497532  1385 net.cpp:434] conv2_2 <- conv2_1
I0705 12:46:31.497539  1385 net.cpp:408] conv2_2 -> conv2_2
I0705 12:46:31.499645  1385 net.cpp:150] Setting up conv2_2
I0705 12:46:31.499683  1385 net.cpp:157] Top shape: 32 128 150 150 (92160000)
I0705 12:46:31.499686  1385 net.cpp:165] Memory required for data: 4515841312
I0705 12:46:31.499693  1385 layer_factory.hpp:77] Creating layer relu2_2
I0705 12:46:31.499699  1385 net.cpp:100] Creating Layer relu2_2
I0705 12:46:31.499702  1385 net.cpp:434] relu2_2 <- conv2_2
I0705 12:46:31.499708  1385 net.cpp:395] relu2_2 -> conv2_2 (in-place)
I0705 12:46:31.499851  1385 net.cpp:150] Setting up relu2_2
I0705 12:46:31.499860  1385 net.cpp:157] Top shape: 32 128 150 150 (92160000)
I0705 12:46:31.499876  1385 net.cpp:165] Memory required for data: 4884481312
I0705 12:46:31.499878  1385 layer_factory.hpp:77] Creating layer pool2
I0705 12:46:31.499883  1385 net.cpp:100] Creating Layer pool2
I0705 12:46:31.499886  1385 net.cpp:434] pool2 <- conv2_2
I0705 12:46:31.499891  1385 net.cpp:408] pool2 -> pool2
I0705 12:46:31.499928  1385 net.cpp:150] Setting up pool2
I0705 12:46:31.499934  1385 net.cpp:157] Top shape: 32 128 75 75 (23040000)
I0705 12:46:31.499936  1385 net.cpp:165] Memory required for data: 4976641312
I0705 12:46:31.499939  1385 layer_factory.hpp:77] Creating layer conv3_1
I0705 12:46:31.499948  1385 net.cpp:100] Creating Layer conv3_1
I0705 12:46:31.499953  1385 net.cpp:434] conv3_1 <- pool2
I0705 12:46:31.499958  1385 net.cpp:408] conv3_1 -> conv3_1
I0705 12:46:31.503787  1385 net.cpp:150] Setting up conv3_1
I0705 12:46:31.503823  1385 net.cpp:157] Top shape: 32 256 75 75 (46080000)
I0705 12:46:31.503826  1385 net.cpp:165] Memory required for data: 5160961312
I0705 12:46:31.503850  1385 layer_factory.hpp:77] Creating layer relu3_1
I0705 12:46:31.503867  1385 net.cpp:100] Creating Layer relu3_1
I0705 12:46:31.503873  1385 net.cpp:434] relu3_1 <- conv3_1
I0705 12:46:31.503883  1385 net.cpp:395] relu3_1 -> conv3_1 (in-place)
I0705 12:46:31.504279  1385 net.cpp:150] Setting up relu3_1
I0705 12:46:31.504289  1385 net.cpp:157] Top shape: 32 256 75 75 (46080000)
I0705 12:46:31.504293  1385 net.cpp:165] Memory required for data: 5345281312
I0705 12:46:31.504297  1385 layer_factory.hpp:77] Creating layer conv3_2
I0705 12:46:31.504312  1385 net.cpp:100] Creating Layer conv3_2
I0705 12:46:31.504317  1385 net.cpp:434] conv3_2 <- conv3_1
I0705 12:46:31.504323  1385 net.cpp:408] conv3_2 -> conv3_2
I0705 12:46:31.508085  1385 net.cpp:150] Setting up conv3_2
I0705 12:46:31.508105  1385 net.cpp:157] Top shape: 32 256 75 75 (46080000)
I0705 12:46:31.508108  1385 net.cpp:165] Memory required for data: 5529601312
I0705 12:46:31.508117  1385 layer_factory.hpp:77] Creating layer relu3_2
I0705 12:46:31.508126  1385 net.cpp:100] Creating Layer relu3_2
I0705 12:46:31.508131  1385 net.cpp:434] relu3_2 <- conv3_2
I0705 12:46:31.508141  1385 net.cpp:395] relu3_2 -> conv3_2 (in-place)
I0705 12:46:31.508492  1385 net.cpp:150] Setting up relu3_2
I0705 12:46:31.508502  1385 net.cpp:157] Top shape: 32 256 75 75 (46080000)
I0705 12:46:31.508505  1385 net.cpp:165] Memory required for data: 5713921312
I0705 12:46:31.508509  1385 layer_factory.hpp:77] Creating layer conv3_3
I0705 12:46:31.508522  1385 net.cpp:100] Creating Layer conv3_3
I0705 12:46:31.508536  1385 net.cpp:434] conv3_3 <- conv3_2
I0705 12:46:31.508544  1385 net.cpp:408] conv3_3 -> conv3_3
I0705 12:46:31.512269  1385 net.cpp:150] Setting up conv3_3
I0705 12:46:31.512280  1385 net.cpp:157] Top shape: 32 256 75 75 (46080000)
I0705 12:46:31.512284  1385 net.cpp:165] Memory required for data: 5898241312
I0705 12:46:31.512305  1385 layer_factory.hpp:77] Creating layer relu3_3
I0705 12:46:31.512311  1385 net.cpp:100] Creating Layer relu3_3
I0705 12:46:31.512316  1385 net.cpp:434] relu3_3 <- conv3_3
I0705 12:46:31.512321  1385 net.cpp:395] relu3_3 -> conv3_3 (in-place)
I0705 12:46:31.512449  1385 net.cpp:150] Setting up relu3_3
I0705 12:46:31.512454  1385 net.cpp:157] Top shape: 32 256 75 75 (46080000)
I0705 12:46:31.512459  1385 net.cpp:165] Memory required for data: 6082561312
I0705 12:46:31.512461  1385 layer_factory.hpp:77] Creating layer pool3
I0705 12:46:31.512482  1385 net.cpp:100] Creating Layer pool3
I0705 12:46:31.512486  1385 net.cpp:434] pool3 <- conv3_3
I0705 12:46:31.512492  1385 net.cpp:408] pool3 -> pool3
I0705 12:46:31.512523  1385 net.cpp:150] Setting up pool3
I0705 12:46:31.512529  1385 net.cpp:157] Top shape: 32 256 38 38 (11829248)
I0705 12:46:31.512532  1385 net.cpp:165] Memory required for data: 6129878304
I0705 12:46:31.512536  1385 layer_factory.hpp:77] Creating layer conv4_1
I0705 12:46:31.512543  1385 net.cpp:100] Creating Layer conv4_1
I0705 12:46:31.512548  1385 net.cpp:434] conv4_1 <- pool3
I0705 12:46:31.512553  1385 net.cpp:408] conv4_1 -> conv4_1
I0705 12:46:31.519362  1385 net.cpp:150] Setting up conv4_1
I0705 12:46:31.519383  1385 net.cpp:157] Top shape: 32 512 38 38 (23658496)
I0705 12:46:31.519387  1385 net.cpp:165] Memory required for data: 6224512288
I0705 12:46:31.519397  1385 layer_factory.hpp:77] Creating layer relu4_1
I0705 12:46:31.519405  1385 net.cpp:100] Creating Layer relu4_1
I0705 12:46:31.519410  1385 net.cpp:434] relu4_1 <- conv4_1
I0705 12:46:31.519419  1385 net.cpp:395] relu4_1 -> conv4_1 (in-place)
I0705 12:46:31.519562  1385 net.cpp:150] Setting up relu4_1
I0705 12:46:31.519568  1385 net.cpp:157] Top shape: 32 512 38 38 (23658496)
I0705 12:46:31.519572  1385 net.cpp:165] Memory required for data: 6319146272
I0705 12:46:31.519575  1385 layer_factory.hpp:77] Creating layer conv4_2
I0705 12:46:31.519587  1385 net.cpp:100] Creating Layer conv4_2
I0705 12:46:31.519592  1385 net.cpp:434] conv4_2 <- conv4_1
I0705 12:46:31.519598  1385 net.cpp:408] conv4_2 -> conv4_2
I0705 12:46:31.531476  1385 net.cpp:150] Setting up conv4_2
I0705 12:46:31.531497  1385 net.cpp:157] Top shape: 32 512 38 38 (23658496)
I0705 12:46:31.531500  1385 net.cpp:165] Memory required for data: 6413780256
I0705 12:46:31.531530  1385 layer_factory.hpp:77] Creating layer relu4_2
I0705 12:46:31.531539  1385 net.cpp:100] Creating Layer relu4_2
I0705 12:46:31.531545  1385 net.cpp:434] relu4_2 <- conv4_2
I0705 12:46:31.531553  1385 net.cpp:395] relu4_2 -> conv4_2 (in-place)
I0705 12:46:31.531687  1385 net.cpp:150] Setting up relu4_2
I0705 12:46:31.531693  1385 net.cpp:157] Top shape: 32 512 38 38 (23658496)
I0705 12:46:31.531697  1385 net.cpp:165] Memory required for data: 6508414240
I0705 12:46:31.531700  1385 layer_factory.hpp:77] Creating layer conv4_3
I0705 12:46:31.531709  1385 net.cpp:100] Creating Layer conv4_3
I0705 12:46:31.531713  1385 net.cpp:434] conv4_3 <- conv4_2
I0705 12:46:31.531718  1385 net.cpp:408] conv4_3 -> conv4_3
I0705 12:46:31.543004  1385 net.cpp:150] Setting up conv4_3
I0705 12:46:31.543023  1385 net.cpp:157] Top shape: 32 512 38 38 (23658496)
I0705 12:46:31.543027  1385 net.cpp:165] Memory required for data: 6603048224
I0705 12:46:31.543051  1385 layer_factory.hpp:77] Creating layer relu4_3
I0705 12:46:31.543061  1385 net.cpp:100] Creating Layer relu4_3
I0705 12:46:31.543067  1385 net.cpp:434] relu4_3 <- conv4_3
I0705 12:46:31.543076  1385 net.cpp:395] relu4_3 -> conv4_3 (in-place)
I0705 12:46:31.543210  1385 net.cpp:150] Setting up relu4_3
I0705 12:46:31.543216  1385 net.cpp:157] Top shape: 32 512 38 38 (23658496)
I0705 12:46:31.543249  1385 net.cpp:165] Memory required for data: 6697682208
I0705 12:46:31.543254  1385 layer_factory.hpp:77] Creating layer conv4_3_relu4_3_0_split
I0705 12:46:31.543260  1385 net.cpp:100] Creating Layer conv4_3_relu4_3_0_split
I0705 12:46:31.543264  1385 net.cpp:434] conv4_3_relu4_3_0_split <- conv4_3
I0705 12:46:31.543269  1385 net.cpp:408] conv4_3_relu4_3_0_split -> conv4_3_relu4_3_0_split_0
I0705 12:46:31.543278  1385 net.cpp:408] conv4_3_relu4_3_0_split -> conv4_3_relu4_3_0_split_1
I0705 12:46:31.543311  1385 net.cpp:150] Setting up conv4_3_relu4_3_0_split
I0705 12:46:31.543316  1385 net.cpp:157] Top shape: 32 512 38 38 (23658496)
I0705 12:46:31.543320  1385 net.cpp:157] Top shape: 32 512 38 38 (23658496)
I0705 12:46:31.543324  1385 net.cpp:165] Memory required for data: 6886950176
I0705 12:46:31.543328  1385 layer_factory.hpp:77] Creating layer pool4
I0705 12:46:31.543334  1385 net.cpp:100] Creating Layer pool4
I0705 12:46:31.543337  1385 net.cpp:434] pool4 <- conv4_3_relu4_3_0_split_0
I0705 12:46:31.543344  1385 net.cpp:408] pool4 -> pool4
I0705 12:46:31.543371  1385 net.cpp:150] Setting up pool4
I0705 12:46:31.543376  1385 net.cpp:157] Top shape: 32 512 19 19 (5914624)
I0705 12:46:31.543380  1385 net.cpp:165] Memory required for data: 6910608672
I0705 12:46:31.543383  1385 layer_factory.hpp:77] Creating layer conv5_1
I0705 12:46:31.543393  1385 net.cpp:100] Creating Layer conv5_1
I0705 12:46:31.543396  1385 net.cpp:434] conv5_1 <- pool4
I0705 12:46:31.543402  1385 net.cpp:408] conv5_1 -> conv5_1
I0705 12:46:31.555663  1385 net.cpp:150] Setting up conv5_1
I0705 12:46:31.555682  1385 net.cpp:157] Top shape: 32 512 19 19 (5914624)
I0705 12:46:31.555686  1385 net.cpp:165] Memory required for data: 6934267168
I0705 12:46:31.555696  1385 layer_factory.hpp:77] Creating layer relu5_1
I0705 12:46:31.555704  1385 net.cpp:100] Creating Layer relu5_1
I0705 12:46:31.555709  1385 net.cpp:434] relu5_1 <- conv5_1
I0705 12:46:31.555716  1385 net.cpp:395] relu5_1 -> conv5_1 (in-place)
I0705 12:46:31.556113  1385 net.cpp:150] Setting up relu5_1
I0705 12:46:31.556121  1385 net.cpp:157] Top shape: 32 512 19 19 (5914624)
I0705 12:46:31.556124  1385 net.cpp:165] Memory required for data: 6957925664
I0705 12:46:31.556128  1385 layer_factory.hpp:77] Creating layer conv5_2
I0705 12:46:31.556138  1385 net.cpp:100] Creating Layer conv5_2
I0705 12:46:31.556143  1385 net.cpp:434] conv5_2 <- conv5_1
I0705 12:46:31.556149  1385 net.cpp:408] conv5_2 -> conv5_2
I0705 12:46:31.567241  1385 net.cpp:150] Setting up conv5_2
I0705 12:46:31.567266  1385 net.cpp:157] Top shape: 32 512 19 19 (5914624)
I0705 12:46:31.567270  1385 net.cpp:165] Memory required for data: 6981584160
I0705 12:46:31.567293  1385 layer_factory.hpp:77] Creating layer relu5_2
I0705 12:46:31.567302  1385 net.cpp:100] Creating Layer relu5_2
I0705 12:46:31.567307  1385 net.cpp:434] relu5_2 <- conv5_2
I0705 12:46:31.567314  1385 net.cpp:395] relu5_2 -> conv5_2 (in-place)
I0705 12:46:31.567818  1385 net.cpp:150] Setting up relu5_2
I0705 12:46:31.567826  1385 net.cpp:157] Top shape: 32 512 19 19 (5914624)
I0705 12:46:31.567831  1385 net.cpp:165] Memory required for data: 7005242656
I0705 12:46:31.567848  1385 layer_factory.hpp:77] Creating layer conv5_3
I0705 12:46:31.567859  1385 net.cpp:100] Creating Layer conv5_3
I0705 12:46:31.567863  1385 net.cpp:434] conv5_3 <- conv5_2
I0705 12:46:31.567869  1385 net.cpp:408] conv5_3 -> conv5_3
I0705 12:46:31.579537  1385 net.cpp:150] Setting up conv5_3
I0705 12:46:31.579558  1385 net.cpp:157] Top shape: 32 512 19 19 (5914624)
I0705 12:46:31.579561  1385 net.cpp:165] Memory required for data: 7028901152
I0705 12:46:31.579584  1385 layer_factory.hpp:77] Creating layer relu5_3
I0705 12:46:31.579598  1385 net.cpp:100] Creating Layer relu5_3
I0705 12:46:31.579604  1385 net.cpp:434] relu5_3 <- conv5_3
I0705 12:46:31.579610  1385 net.cpp:395] relu5_3 -> conv5_3 (in-place)
I0705 12:46:31.579738  1385 net.cpp:150] Setting up relu5_3
I0705 12:46:31.579746  1385 net.cpp:157] Top shape: 32 512 19 19 (5914624)
I0705 12:46:31.579748  1385 net.cpp:165] Memory required for data: 7052559648
I0705 12:46:31.579782  1385 layer_factory.hpp:77] Creating layer pool5
I0705 12:46:31.579788  1385 net.cpp:100] Creating Layer pool5
I0705 12:46:31.579793  1385 net.cpp:434] pool5 <- conv5_3
I0705 12:46:31.579810  1385 net.cpp:408] pool5 -> pool5
I0705 12:46:31.579871  1385 net.cpp:150] Setting up pool5
I0705 12:46:31.579876  1385 net.cpp:157] Top shape: 32 512 19 19 (5914624)
I0705 12:46:31.579880  1385 net.cpp:165] Memory required for data: 7076218144
I0705 12:46:31.579898  1385 layer_factory.hpp:77] Creating layer fc6
I0705 12:46:31.579907  1385 net.cpp:100] Creating Layer fc6
I0705 12:46:31.579916  1385 net.cpp:434] fc6 <- pool5
I0705 12:46:31.579922  1385 net.cpp:408] fc6 -> fc6
I0705 12:46:31.608228  1385 net.cpp:150] Setting up fc6
I0705 12:46:31.608569  1385 net.cpp:157] Top shape: 32 1024 19 19 (11829248)
I0705 12:46:31.608593  1385 net.cpp:165] Memory required for data: 7123535136
I0705 12:46:31.608634  1385 layer_factory.hpp:77] Creating layer relu6
I0705 12:46:31.608669  1385 net.cpp:100] Creating Layer relu6
I0705 12:46:31.608700  1385 net.cpp:434] relu6 <- fc6
I0705 12:46:31.608726  1385 net.cpp:395] relu6 -> fc6 (in-place)
I0705 12:46:31.608984  1385 net.cpp:150] Setting up relu6
I0705 12:46:31.608992  1385 net.cpp:157] Top shape: 32 1024 19 19 (11829248)
I0705 12:46:31.608996  1385 net.cpp:165] Memory required for data: 7170852128
I0705 12:46:31.609000  1385 layer_factory.hpp:77] Creating layer fc7
I0705 12:46:31.609014  1385 net.cpp:100] Creating Layer fc7
I0705 12:46:31.609019  1385 net.cpp:434] fc7 <- fc6
I0705 12:46:31.609025  1385 net.cpp:408] fc7 -> fc7
I0705 12:46:31.622138  1385 net.cpp:150] Setting up fc7
I0705 12:46:31.622170  1385 net.cpp:157] Top shape: 32 1024 19 19 (11829248)
I0705 12:46:31.622174  1385 net.cpp:165] Memory required for data: 7218169120
I0705 12:46:31.622189  1385 layer_factory.hpp:77] Creating layer relu7
I0705 12:46:31.622202  1385 net.cpp:100] Creating Layer relu7
I0705 12:46:31.622208  1385 net.cpp:434] relu7 <- fc7
I0705 12:46:31.622215  1385 net.cpp:395] relu7 -> fc7 (in-place)
I0705 12:46:31.622367  1385 net.cpp:150] Setting up relu7
I0705 12:46:31.622375  1385 net.cpp:157] Top shape: 32 1024 19 19 (11829248)
I0705 12:46:31.622380  1385 net.cpp:165] Memory required for data: 7265486112
I0705 12:46:31.622382  1385 layer_factory.hpp:77] Creating layer fc7_relu7_0_split
I0705 12:46:31.622390  1385 net.cpp:100] Creating Layer fc7_relu7_0_split
I0705 12:46:31.622392  1385 net.cpp:434] fc7_relu7_0_split <- fc7
I0705 12:46:31.622397  1385 net.cpp:408] fc7_relu7_0_split -> fc7_relu7_0_split_0
I0705 12:46:31.622406  1385 net.cpp:408] fc7_relu7_0_split -> fc7_relu7_0_split_1
I0705 12:46:31.622417  1385 net.cpp:408] fc7_relu7_0_split -> fc7_relu7_0_split_2
I0705 12:46:31.622423  1385 net.cpp:408] fc7_relu7_0_split -> fc7_relu7_0_split_3
I0705 12:46:31.622486  1385 net.cpp:150] Setting up fc7_relu7_0_split
I0705 12:46:31.622493  1385 net.cpp:157] Top shape: 32 1024 19 19 (11829248)
I0705 12:46:31.622498  1385 net.cpp:157] Top shape: 32 1024 19 19 (11829248)
I0705 12:46:31.622501  1385 net.cpp:157] Top shape: 32 1024 19 19 (11829248)
I0705 12:46:31.622504  1385 net.cpp:157] Top shape: 32 1024 19 19 (11829248)
I0705 12:46:31.622509  1385 net.cpp:165] Memory required for data: 7454754080
I0705 12:46:31.622511  1385 layer_factory.hpp:77] Creating layer conv6_1
I0705 12:46:31.622522  1385 net.cpp:100] Creating Layer conv6_1
I0705 12:46:31.622526  1385 net.cpp:434] conv6_1 <- fc7_relu7_0_split_0
I0705 12:46:31.622534  1385 net.cpp:408] conv6_1 -> conv6_1
I0705 12:46:31.626008  1385 net.cpp:150] Setting up conv6_1
I0705 12:46:31.626034  1385 net.cpp:157] Top shape: 32 256 19 19 (2957312)
I0705 12:46:31.626036  1385 net.cpp:165] Memory required for data: 7466583328
I0705 12:46:31.626049  1385 layer_factory.hpp:77] Creating layer conv6_1_relu
I0705 12:46:31.626065  1385 net.cpp:100] Creating Layer conv6_1_relu
I0705 12:46:31.626068  1385 net.cpp:434] conv6_1_relu <- conv6_1
I0705 12:46:31.626076  1385 net.cpp:395] conv6_1_relu -> conv6_1 (in-place)
I0705 12:46:31.626521  1385 net.cpp:150] Setting up conv6_1_relu
I0705 12:46:31.626531  1385 net.cpp:157] Top shape: 32 256 19 19 (2957312)
I0705 12:46:31.626535  1385 net.cpp:165] Memory required for data: 7478412576
I0705 12:46:31.626539  1385 layer_factory.hpp:77] Creating layer conv6_2
I0705 12:46:31.626552  1385 net.cpp:100] Creating Layer conv6_2
I0705 12:46:31.626556  1385 net.cpp:434] conv6_2 <- conv6_1
I0705 12:46:31.626562  1385 net.cpp:408] conv6_2 -> conv6_2
I0705 12:46:31.634486  1385 net.cpp:150] Setting up conv6_2
I0705 12:46:31.634512  1385 net.cpp:157] Top shape: 32 512 10 10 (1638400)
I0705 12:46:31.634516  1385 net.cpp:165] Memory required for data: 7484966176
I0705 12:46:31.634533  1385 layer_factory.hpp:77] Creating layer conv6_2_relu
I0705 12:46:31.634542  1385 net.cpp:100] Creating Layer conv6_2_relu
I0705 12:46:31.634548  1385 net.cpp:434] conv6_2_relu <- conv6_2
I0705 12:46:31.634554  1385 net.cpp:395] conv6_2_relu -> conv6_2 (in-place)
I0705 12:46:31.636571  1385 net.cpp:150] Setting up conv6_2_relu
I0705 12:46:31.636606  1385 net.cpp:157] Top shape: 32 512 10 10 (1638400)
I0705 12:46:31.636610  1385 net.cpp:165] Memory required for data: 7491519776
I0705 12:46:31.636615  1385 layer_factory.hpp:77] Creating layer conv6_2_conv6_2_relu_0_split
I0705 12:46:31.636626  1385 net.cpp:100] Creating Layer conv6_2_conv6_2_relu_0_split
I0705 12:46:31.636631  1385 net.cpp:434] conv6_2_conv6_2_relu_0_split <- conv6_2
I0705 12:46:31.636639  1385 net.cpp:408] conv6_2_conv6_2_relu_0_split -> conv6_2_conv6_2_relu_0_split_0
I0705 12:46:31.636648  1385 net.cpp:408] conv6_2_conv6_2_relu_0_split -> conv6_2_conv6_2_relu_0_split_1
I0705 12:46:31.636656  1385 net.cpp:408] conv6_2_conv6_2_relu_0_split -> conv6_2_conv6_2_relu_0_split_2
I0705 12:46:31.636662  1385 net.cpp:408] conv6_2_conv6_2_relu_0_split -> conv6_2_conv6_2_relu_0_split_3
I0705 12:46:31.636770  1385 net.cpp:150] Setting up conv6_2_conv6_2_relu_0_split
I0705 12:46:31.636793  1385 net.cpp:157] Top shape: 32 512 10 10 (1638400)
I0705 12:46:31.636797  1385 net.cpp:157] Top shape: 32 512 10 10 (1638400)
I0705 12:46:31.636801  1385 net.cpp:157] Top shape: 32 512 10 10 (1638400)
I0705 12:46:31.636806  1385 net.cpp:157] Top shape: 32 512 10 10 (1638400)
I0705 12:46:31.636808  1385 net.cpp:165] Memory required for data: 7517734176
I0705 12:46:31.636811  1385 layer_factory.hpp:77] Creating layer conv7_1
I0705 12:46:31.636822  1385 net.cpp:100] Creating Layer conv7_1
I0705 12:46:31.636826  1385 net.cpp:434] conv7_1 <- conv6_2_conv6_2_relu_0_split_0
I0705 12:46:31.636833  1385 net.cpp:408] conv7_1 -> conv7_1
I0705 12:46:31.638072  1385 net.cpp:150] Setting up conv7_1
I0705 12:46:31.638087  1385 net.cpp:157] Top shape: 32 128 10 10 (409600)
I0705 12:46:31.638089  1385 net.cpp:165] Memory required for data: 7519372576
I0705 12:46:31.638100  1385 layer_factory.hpp:77] Creating layer conv7_1_relu
I0705 12:46:31.638108  1385 net.cpp:100] Creating Layer conv7_1_relu
I0705 12:46:31.638113  1385 net.cpp:434] conv7_1_relu <- conv7_1
I0705 12:46:31.638119  1385 net.cpp:395] conv7_1_relu -> conv7_1 (in-place)
I0705 12:46:31.638274  1385 net.cpp:150] Setting up conv7_1_relu
I0705 12:46:31.638283  1385 net.cpp:157] Top shape: 32 128 10 10 (409600)
I0705 12:46:31.638288  1385 net.cpp:165] Memory required for data: 7521010976
I0705 12:46:31.638291  1385 layer_factory.hpp:77] Creating layer conv7_2
I0705 12:46:31.638303  1385 net.cpp:100] Creating Layer conv7_2
I0705 12:46:31.638309  1385 net.cpp:434] conv7_2 <- conv7_1
I0705 12:46:31.638315  1385 net.cpp:408] conv7_2 -> conv7_2
I0705 12:46:31.641492  1385 net.cpp:150] Setting up conv7_2
I0705 12:46:31.641516  1385 net.cpp:157] Top shape: 32 256 5 5 (204800)
I0705 12:46:31.641520  1385 net.cpp:165] Memory required for data: 7521830176
I0705 12:46:31.641533  1385 layer_factory.hpp:77] Creating layer conv7_2_relu
I0705 12:46:31.641546  1385 net.cpp:100] Creating Layer conv7_2_relu
I0705 12:46:31.641552  1385 net.cpp:434] conv7_2_relu <- conv7_2
I0705 12:46:31.641561  1385 net.cpp:395] conv7_2_relu -> conv7_2 (in-place)
I0705 12:46:31.641804  1385 net.cpp:150] Setting up conv7_2_relu
I0705 12:46:31.641813  1385 net.cpp:157] Top shape: 32 256 5 5 (204800)
I0705 12:46:31.641816  1385 net.cpp:165] Memory required for data: 7522649376
I0705 12:46:31.641819  1385 layer_factory.hpp:77] Creating layer conv7_2_conv7_2_relu_0_split
I0705 12:46:31.641826  1385 net.cpp:100] Creating Layer conv7_2_conv7_2_relu_0_split
I0705 12:46:31.641830  1385 net.cpp:434] conv7_2_conv7_2_relu_0_split <- conv7_2
I0705 12:46:31.641836  1385 net.cpp:408] conv7_2_conv7_2_relu_0_split -> conv7_2_conv7_2_relu_0_split_0
I0705 12:46:31.641844  1385 net.cpp:408] conv7_2_conv7_2_relu_0_split -> conv7_2_conv7_2_relu_0_split_1
I0705 12:46:31.641850  1385 net.cpp:408] conv7_2_conv7_2_relu_0_split -> conv7_2_conv7_2_relu_0_split_2
I0705 12:46:31.641856  1385 net.cpp:408] conv7_2_conv7_2_relu_0_split -> conv7_2_conv7_2_relu_0_split_3
I0705 12:46:31.641960  1385 net.cpp:150] Setting up conv7_2_conv7_2_relu_0_split
I0705 12:46:31.641966  1385 net.cpp:157] Top shape: 32 256 5 5 (204800)
I0705 12:46:31.641984  1385 net.cpp:157] Top shape: 32 256 5 5 (204800)
I0705 12:46:31.641988  1385 net.cpp:157] Top shape: 32 256 5 5 (204800)
I0705 12:46:31.641993  1385 net.cpp:157] Top shape: 32 256 5 5 (204800)
I0705 12:46:31.641995  1385 net.cpp:165] Memory required for data: 7525926176
I0705 12:46:31.641999  1385 layer_factory.hpp:77] Creating layer conv8_1
I0705 12:46:31.642009  1385 net.cpp:100] Creating Layer conv8_1
I0705 12:46:31.642014  1385 net.cpp:434] conv8_1 <- conv7_2_conv7_2_relu_0_split_0
I0705 12:46:31.642019  1385 net.cpp:408] conv8_1 -> conv8_1
I0705 12:46:31.643107  1385 net.cpp:150] Setting up conv8_1
I0705 12:46:31.643126  1385 net.cpp:157] Top shape: 32 128 5 5 (102400)
I0705 12:46:31.643128  1385 net.cpp:165] Memory required for data: 7526335776
I0705 12:46:31.643136  1385 layer_factory.hpp:77] Creating layer conv8_1_relu
I0705 12:46:31.643146  1385 net.cpp:100] Creating Layer conv8_1_relu
I0705 12:46:31.643149  1385 net.cpp:434] conv8_1_relu <- conv8_1
I0705 12:46:31.643154  1385 net.cpp:395] conv8_1_relu -> conv8_1 (in-place)
I0705 12:46:31.643270  1385 net.cpp:150] Setting up conv8_1_relu
I0705 12:46:31.643275  1385 net.cpp:157] Top shape: 32 128 5 5 (102400)
I0705 12:46:31.643277  1385 net.cpp:165] Memory required for data: 7526745376
I0705 12:46:31.643280  1385 layer_factory.hpp:77] Creating layer conv8_2
I0705 12:46:31.643287  1385 net.cpp:100] Creating Layer conv8_2
I0705 12:46:31.643290  1385 net.cpp:434] conv8_2 <- conv8_1
I0705 12:46:31.643295  1385 net.cpp:408] conv8_2 -> conv8_2
I0705 12:46:31.647166  1385 net.cpp:150] Setting up conv8_2
I0705 12:46:31.647212  1385 net.cpp:157] Top shape: 32 256 3 3 (73728)
I0705 12:46:31.647215  1385 net.cpp:165] Memory required for data: 7527040288
I0705 12:46:31.647229  1385 layer_factory.hpp:77] Creating layer conv8_2_relu
I0705 12:46:31.647243  1385 net.cpp:100] Creating Layer conv8_2_relu
I0705 12:46:31.647249  1385 net.cpp:434] conv8_2_relu <- conv8_2
I0705 12:46:31.647258  1385 net.cpp:395] conv8_2_relu -> conv8_2 (in-place)
I0705 12:46:31.647423  1385 net.cpp:150] Setting up conv8_2_relu
I0705 12:46:31.647431  1385 net.cpp:157] Top shape: 32 256 3 3 (73728)
I0705 12:46:31.647449  1385 net.cpp:165] Memory required for data: 7527335200
I0705 12:46:31.647451  1385 layer_factory.hpp:77] Creating layer conv8_2_conv8_2_relu_0_split
I0705 12:46:31.647459  1385 net.cpp:100] Creating Layer conv8_2_conv8_2_relu_0_split
I0705 12:46:31.647462  1385 net.cpp:434] conv8_2_conv8_2_relu_0_split <- conv8_2
I0705 12:46:31.647469  1385 net.cpp:408] conv8_2_conv8_2_relu_0_split -> conv8_2_conv8_2_relu_0_split_0
I0705 12:46:31.647478  1385 net.cpp:408] conv8_2_conv8_2_relu_0_split -> conv8_2_conv8_2_relu_0_split_1
I0705 12:46:31.647505  1385 net.cpp:408] conv8_2_conv8_2_relu_0_split -> conv8_2_conv8_2_relu_0_split_2
I0705 12:46:31.647512  1385 net.cpp:408] conv8_2_conv8_2_relu_0_split -> conv8_2_conv8_2_relu_0_split_3
I0705 12:46:31.647572  1385 net.cpp:150] Setting up conv8_2_conv8_2_relu_0_split
I0705 12:46:31.647578  1385 net.cpp:157] Top shape: 32 256 3 3 (73728)
I0705 12:46:31.647593  1385 net.cpp:157] Top shape: 32 256 3 3 (73728)
I0705 12:46:31.647595  1385 net.cpp:157] Top shape: 32 256 3 3 (73728)
I0705 12:46:31.647598  1385 net.cpp:157] Top shape: 32 256 3 3 (73728)
I0705 12:46:31.647600  1385 net.cpp:165] Memory required for data: 7528514848
I0705 12:46:31.647603  1385 layer_factory.hpp:77] Creating layer conv9_1
I0705 12:46:31.647611  1385 net.cpp:100] Creating Layer conv9_1
I0705 12:46:31.647614  1385 net.cpp:434] conv9_1 <- conv8_2_conv8_2_relu_0_split_0
I0705 12:46:31.647619  1385 net.cpp:408] conv9_1 -> conv9_1
I0705 12:46:31.648669  1385 net.cpp:150] Setting up conv9_1
I0705 12:46:31.648679  1385 net.cpp:157] Top shape: 32 128 3 3 (36864)
I0705 12:46:31.648694  1385 net.cpp:165] Memory required for data: 7528662304
I0705 12:46:31.648703  1385 layer_factory.hpp:77] Creating layer conv9_1_relu
I0705 12:46:31.648710  1385 net.cpp:100] Creating Layer conv9_1_relu
I0705 12:46:31.648713  1385 net.cpp:434] conv9_1_relu <- conv9_1
I0705 12:46:31.648717  1385 net.cpp:395] conv9_1_relu -> conv9_1 (in-place)
I0705 12:46:31.649320  1385 net.cpp:150] Setting up conv9_1_relu
I0705 12:46:31.649334  1385 net.cpp:157] Top shape: 32 128 3 3 (36864)
I0705 12:46:31.649338  1385 net.cpp:165] Memory required for data: 7528809760
I0705 12:46:31.649343  1385 layer_factory.hpp:77] Creating layer conv9_2
I0705 12:46:31.649356  1385 net.cpp:100] Creating Layer conv9_2
I0705 12:46:31.649363  1385 net.cpp:434] conv9_2 <- conv9_1
I0705 12:46:31.649370  1385 net.cpp:408] conv9_2 -> conv9_2
I0705 12:46:31.653143  1385 net.cpp:150] Setting up conv9_2
I0705 12:46:31.653189  1385 net.cpp:157] Top shape: 32 256 1 1 (8192)
I0705 12:46:31.653194  1385 net.cpp:165] Memory required for data: 7528842528
I0705 12:46:31.653208  1385 layer_factory.hpp:77] Creating layer conv9_2_relu
I0705 12:46:31.653224  1385 net.cpp:100] Creating Layer conv9_2_relu
I0705 12:46:31.653232  1385 net.cpp:434] conv9_2_relu <- conv9_2
I0705 12:46:31.653241  1385 net.cpp:395] conv9_2_relu -> conv9_2 (in-place)
I0705 12:46:31.653928  1385 net.cpp:150] Setting up conv9_2_relu
I0705 12:46:31.653944  1385 net.cpp:157] Top shape: 32 256 1 1 (8192)
I0705 12:46:31.653946  1385 net.cpp:165] Memory required for data: 7528875296
I0705 12:46:31.653951  1385 layer_factory.hpp:77] Creating layer conv9_2_conv9_2_relu_0_split
I0705 12:46:31.653961  1385 net.cpp:100] Creating Layer conv9_2_conv9_2_relu_0_split
I0705 12:46:31.653969  1385 net.cpp:434] conv9_2_conv9_2_relu_0_split <- conv9_2
I0705 12:46:31.653975  1385 net.cpp:408] conv9_2_conv9_2_relu_0_split -> conv9_2_conv9_2_relu_0_split_0
I0705 12:46:31.653983  1385 net.cpp:408] conv9_2_conv9_2_relu_0_split -> conv9_2_conv9_2_relu_0_split_1
I0705 12:46:31.654004  1385 net.cpp:408] conv9_2_conv9_2_relu_0_split -> conv9_2_conv9_2_relu_0_split_2
I0705 12:46:31.654064  1385 net.cpp:150] Setting up conv9_2_conv9_2_relu_0_split
I0705 12:46:31.654069  1385 net.cpp:157] Top shape: 32 256 1 1 (8192)
I0705 12:46:31.654073  1385 net.cpp:157] Top shape: 32 256 1 1 (8192)
I0705 12:46:31.654078  1385 net.cpp:157] Top shape: 32 256 1 1 (8192)
I0705 12:46:31.654083  1385 net.cpp:165] Memory required for data: 7528973600
I0705 12:46:31.654085  1385 layer_factory.hpp:77] Creating layer conv4_3_norm
I0705 12:46:31.654094  1385 net.cpp:100] Creating Layer conv4_3_norm
I0705 12:46:31.654099  1385 net.cpp:434] conv4_3_norm <- conv4_3_relu4_3_0_split_1
I0705 12:46:31.654105  1385 net.cpp:408] conv4_3_norm -> conv4_3_norm
I0705 12:46:31.654238  1385 net.cpp:150] Setting up conv4_3_norm
I0705 12:46:31.654244  1385 net.cpp:157] Top shape: 32 512 38 38 (23658496)
I0705 12:46:31.654247  1385 net.cpp:165] Memory required for data: 7623607584
I0705 12:46:31.654251  1385 layer_factory.hpp:77] Creating layer conv4_3_norm_conv4_3_norm_0_split
I0705 12:46:31.654258  1385 net.cpp:100] Creating Layer conv4_3_norm_conv4_3_norm_0_split
I0705 12:46:31.654261  1385 net.cpp:434] conv4_3_norm_conv4_3_norm_0_split <- conv4_3_norm
I0705 12:46:31.654268  1385 net.cpp:408] conv4_3_norm_conv4_3_norm_0_split -> conv4_3_norm_conv4_3_norm_0_split_0
I0705 12:46:31.654294  1385 net.cpp:408] conv4_3_norm_conv4_3_norm_0_split -> conv4_3_norm_conv4_3_norm_0_split_1
I0705 12:46:31.654301  1385 net.cpp:408] conv4_3_norm_conv4_3_norm_0_split -> conv4_3_norm_conv4_3_norm_0_split_2
I0705 12:46:31.654343  1385 net.cpp:150] Setting up conv4_3_norm_conv4_3_norm_0_split
I0705 12:46:31.654351  1385 net.cpp:157] Top shape: 32 512 38 38 (23658496)
I0705 12:46:31.654357  1385 net.cpp:157] Top shape: 32 512 38 38 (23658496)
I0705 12:46:31.654362  1385 net.cpp:157] Top shape: 32 512 38 38 (23658496)
I0705 12:46:31.654364  1385 net.cpp:165] Memory required for data: 7907509536
I0705 12:46:31.654367  1385 layer_factory.hpp:77] Creating layer conv4_3_norm_mbox_loc
I0705 12:46:31.654382  1385 net.cpp:100] Creating Layer conv4_3_norm_mbox_loc
I0705 12:46:31.654386  1385 net.cpp:434] conv4_3_norm_mbox_loc <- conv4_3_norm_conv4_3_norm_0_split_0
I0705 12:46:31.654392  1385 net.cpp:408] conv4_3_norm_mbox_loc -> conv4_3_norm_mbox_loc
I0705 12:46:31.656584  1385 net.cpp:150] Setting up conv4_3_norm_mbox_loc
I0705 12:46:31.656615  1385 net.cpp:157] Top shape: 32 16 38 38 (739328)
I0705 12:46:31.656618  1385 net.cpp:165] Memory required for data: 7910466848
I0705 12:46:31.656633  1385 layer_factory.hpp:77] Creating layer conv4_3_norm_mbox_loc_perm
I0705 12:46:31.656649  1385 net.cpp:100] Creating Layer conv4_3_norm_mbox_loc_perm
I0705 12:46:31.656657  1385 net.cpp:434] conv4_3_norm_mbox_loc_perm <- conv4_3_norm_mbox_loc
I0705 12:46:31.656666  1385 net.cpp:408] conv4_3_norm_mbox_loc_perm -> conv4_3_norm_mbox_loc_perm
I0705 12:46:31.656816  1385 net.cpp:150] Setting up conv4_3_norm_mbox_loc_perm
I0705 12:46:31.656824  1385 net.cpp:157] Top shape: 32 38 38 16 (739328)
I0705 12:46:31.656828  1385 net.cpp:165] Memory required for data: 7913424160
I0705 12:46:31.656831  1385 layer_factory.hpp:77] Creating layer conv4_3_norm_mbox_loc_flat
I0705 12:46:31.656838  1385 net.cpp:100] Creating Layer conv4_3_norm_mbox_loc_flat
I0705 12:46:31.656843  1385 net.cpp:434] conv4_3_norm_mbox_loc_flat <- conv4_3_norm_mbox_loc_perm
I0705 12:46:31.656848  1385 net.cpp:408] conv4_3_norm_mbox_loc_flat -> conv4_3_norm_mbox_loc_flat
I0705 12:46:31.656885  1385 net.cpp:150] Setting up conv4_3_norm_mbox_loc_flat
I0705 12:46:31.656893  1385 net.cpp:157] Top shape: 32 23104 (739328)
I0705 12:46:31.656895  1385 net.cpp:165] Memory required for data: 7916381472
I0705 12:46:31.656899  1385 layer_factory.hpp:77] Creating layer conv4_3_norm_mbox_conf
I0705 12:46:31.656918  1385 net.cpp:100] Creating Layer conv4_3_norm_mbox_conf
I0705 12:46:31.656922  1385 net.cpp:434] conv4_3_norm_mbox_conf <- conv4_3_norm_conv4_3_norm_0_split_1
I0705 12:46:31.656929  1385 net.cpp:408] conv4_3_norm_mbox_conf -> conv4_3_norm_mbox_conf
I0705 12:46:31.658514  1385 net.cpp:150] Setting up conv4_3_norm_mbox_conf
I0705 12:46:31.658535  1385 net.cpp:157] Top shape: 32 8 38 38 (369664)
I0705 12:46:31.658538  1385 net.cpp:165] Memory required for data: 7917860128
I0705 12:46:31.658552  1385 layer_factory.hpp:77] Creating layer conv4_3_norm_mbox_conf_perm
I0705 12:46:31.658565  1385 net.cpp:100] Creating Layer conv4_3_norm_mbox_conf_perm
I0705 12:46:31.658571  1385 net.cpp:434] conv4_3_norm_mbox_conf_perm <- conv4_3_norm_mbox_conf
I0705 12:46:31.658579  1385 net.cpp:408] conv4_3_norm_mbox_conf_perm -> conv4_3_norm_mbox_conf_perm
I0705 12:46:31.658699  1385 net.cpp:150] Setting up conv4_3_norm_mbox_conf_perm
I0705 12:46:31.658706  1385 net.cpp:157] Top shape: 32 38 38 8 (369664)
I0705 12:46:31.658710  1385 net.cpp:165] Memory required for data: 7919338784
I0705 12:46:31.658712  1385 layer_factory.hpp:77] Creating layer conv4_3_norm_mbox_conf_flat
I0705 12:46:31.658720  1385 net.cpp:100] Creating Layer conv4_3_norm_mbox_conf_flat
I0705 12:46:31.658723  1385 net.cpp:434] conv4_3_norm_mbox_conf_flat <- conv4_3_norm_mbox_conf_perm
I0705 12:46:31.658730  1385 net.cpp:408] conv4_3_norm_mbox_conf_flat -> conv4_3_norm_mbox_conf_flat
I0705 12:46:31.658752  1385 net.cpp:150] Setting up conv4_3_norm_mbox_conf_flat
I0705 12:46:31.658757  1385 net.cpp:157] Top shape: 32 11552 (369664)
I0705 12:46:31.658776  1385 net.cpp:165] Memory required for data: 7920817440
I0705 12:46:31.658779  1385 layer_factory.hpp:77] Creating layer conv4_3_norm_mbox_priorbox
I0705 12:46:31.658787  1385 net.cpp:100] Creating Layer conv4_3_norm_mbox_priorbox
I0705 12:46:31.658792  1385 net.cpp:434] conv4_3_norm_mbox_priorbox <- conv4_3_norm_conv4_3_norm_0_split_2
I0705 12:46:31.658797  1385 net.cpp:434] conv4_3_norm_mbox_priorbox <- data_data_0_split_1
I0705 12:46:31.658807  1385 net.cpp:408] conv4_3_norm_mbox_priorbox -> conv4_3_norm_mbox_priorbox
I0705 12:46:31.658839  1385 net.cpp:150] Setting up conv4_3_norm_mbox_priorbox
I0705 12:46:31.658845  1385 net.cpp:157] Top shape: 1 2 23104 (46208)
I0705 12:46:31.658849  1385 net.cpp:165] Memory required for data: 7921002272
I0705 12:46:31.658852  1385 layer_factory.hpp:77] Creating layer fc7_mbox_loc
I0705 12:46:31.658864  1385 net.cpp:100] Creating Layer fc7_mbox_loc
I0705 12:46:31.658869  1385 net.cpp:434] fc7_mbox_loc <- fc7_relu7_0_split_1
I0705 12:46:31.658875  1385 net.cpp:408] fc7_mbox_loc -> fc7_mbox_loc
I0705 12:46:31.661492  1385 net.cpp:150] Setting up fc7_mbox_loc
I0705 12:46:31.661520  1385 net.cpp:157] Top shape: 32 24 19 19 (277248)
I0705 12:46:31.661523  1385 net.cpp:165] Memory required for data: 7922111264
I0705 12:46:31.661537  1385 layer_factory.hpp:77] Creating layer fc7_mbox_loc_perm
I0705 12:46:31.661552  1385 net.cpp:100] Creating Layer fc7_mbox_loc_perm
I0705 12:46:31.661561  1385 net.cpp:434] fc7_mbox_loc_perm <- fc7_mbox_loc
I0705 12:46:31.661569  1385 net.cpp:408] fc7_mbox_loc_perm -> fc7_mbox_loc_perm
I0705 12:46:31.661726  1385 net.cpp:150] Setting up fc7_mbox_loc_perm
I0705 12:46:31.661734  1385 net.cpp:157] Top shape: 32 19 19 24 (277248)
I0705 12:46:31.661737  1385 net.cpp:165] Memory required for data: 7923220256
I0705 12:46:31.661741  1385 layer_factory.hpp:77] Creating layer fc7_mbox_loc_flat
I0705 12:46:31.661751  1385 net.cpp:100] Creating Layer fc7_mbox_loc_flat
I0705 12:46:31.661756  1385 net.cpp:434] fc7_mbox_loc_flat <- fc7_mbox_loc_perm
I0705 12:46:31.661761  1385 net.cpp:408] fc7_mbox_loc_flat -> fc7_mbox_loc_flat
I0705 12:46:31.661790  1385 net.cpp:150] Setting up fc7_mbox_loc_flat
I0705 12:46:31.661797  1385 net.cpp:157] Top shape: 32 8664 (277248)
I0705 12:46:31.661799  1385 net.cpp:165] Memory required for data: 7924329248
I0705 12:46:31.661803  1385 layer_factory.hpp:77] Creating layer fc7_mbox_conf
I0705 12:46:31.661820  1385 net.cpp:100] Creating Layer fc7_mbox_conf
I0705 12:46:31.661825  1385 net.cpp:434] fc7_mbox_conf <- fc7_relu7_0_split_2
I0705 12:46:31.661834  1385 net.cpp:408] fc7_mbox_conf -> fc7_mbox_conf
I0705 12:46:31.663980  1385 net.cpp:150] Setting up fc7_mbox_conf
I0705 12:46:31.664000  1385 net.cpp:157] Top shape: 32 12 19 19 (138624)
I0705 12:46:31.664005  1385 net.cpp:165] Memory required for data: 7924883744
I0705 12:46:31.664016  1385 layer_factory.hpp:77] Creating layer fc7_mbox_conf_perm
I0705 12:46:31.664027  1385 net.cpp:100] Creating Layer fc7_mbox_conf_perm
I0705 12:46:31.664034  1385 net.cpp:434] fc7_mbox_conf_perm <- fc7_mbox_conf
I0705 12:46:31.664041  1385 net.cpp:408] fc7_mbox_conf_perm -> fc7_mbox_conf_perm
I0705 12:46:31.664167  1385 net.cpp:150] Setting up fc7_mbox_conf_perm
I0705 12:46:31.664173  1385 net.cpp:157] Top shape: 32 19 19 12 (138624)
I0705 12:46:31.664189  1385 net.cpp:165] Memory required for data: 7925438240
I0705 12:46:31.664193  1385 layer_factory.hpp:77] Creating layer fc7_mbox_conf_flat
I0705 12:46:31.664199  1385 net.cpp:100] Creating Layer fc7_mbox_conf_flat
I0705 12:46:31.664203  1385 net.cpp:434] fc7_mbox_conf_flat <- fc7_mbox_conf_perm
I0705 12:46:31.664207  1385 net.cpp:408] fc7_mbox_conf_flat -> fc7_mbox_conf_flat
I0705 12:46:31.664233  1385 net.cpp:150] Setting up fc7_mbox_conf_flat
I0705 12:46:31.664238  1385 net.cpp:157] Top shape: 32 4332 (138624)
I0705 12:46:31.664242  1385 net.cpp:165] Memory required for data: 7925992736
I0705 12:46:31.664244  1385 layer_factory.hpp:77] Creating layer fc7_mbox_priorbox
I0705 12:46:31.664265  1385 net.cpp:100] Creating Layer fc7_mbox_priorbox
I0705 12:46:31.664299  1385 net.cpp:434] fc7_mbox_priorbox <- fc7_relu7_0_split_3
I0705 12:46:31.664304  1385 net.cpp:434] fc7_mbox_priorbox <- data_data_0_split_2
I0705 12:46:31.664310  1385 net.cpp:408] fc7_mbox_priorbox -> fc7_mbox_priorbox
I0705 12:46:31.664345  1385 net.cpp:150] Setting up fc7_mbox_priorbox
I0705 12:46:31.664355  1385 net.cpp:157] Top shape: 1 2 8664 (17328)
I0705 12:46:31.664357  1385 net.cpp:165] Memory required for data: 7926062048
I0705 12:46:31.664361  1385 layer_factory.hpp:77] Creating layer conv6_2_mbox_loc
I0705 12:46:31.664376  1385 net.cpp:100] Creating Layer conv6_2_mbox_loc
I0705 12:46:31.664381  1385 net.cpp:434] conv6_2_mbox_loc <- conv6_2_conv6_2_relu_0_split_1
I0705 12:46:31.664388  1385 net.cpp:408] conv6_2_mbox_loc -> conv6_2_mbox_loc
I0705 12:46:31.666030  1385 net.cpp:150] Setting up conv6_2_mbox_loc
I0705 12:46:31.666044  1385 net.cpp:157] Top shape: 32 24 10 10 (76800)
I0705 12:46:31.666048  1385 net.cpp:165] Memory required for data: 7926369248
I0705 12:46:31.666055  1385 layer_factory.hpp:77] Creating layer conv6_2_mbox_loc_perm
I0705 12:46:31.666065  1385 net.cpp:100] Creating Layer conv6_2_mbox_loc_perm
I0705 12:46:31.666071  1385 net.cpp:434] conv6_2_mbox_loc_perm <- conv6_2_mbox_loc
I0705 12:46:31.666079  1385 net.cpp:408] conv6_2_mbox_loc_perm -> conv6_2_mbox_loc_perm
I0705 12:46:31.666170  1385 net.cpp:150] Setting up conv6_2_mbox_loc_perm
I0705 12:46:31.666177  1385 net.cpp:157] Top shape: 32 10 10 24 (76800)
I0705 12:46:31.666180  1385 net.cpp:165] Memory required for data: 7926676448
I0705 12:46:31.666183  1385 layer_factory.hpp:77] Creating layer conv6_2_mbox_loc_flat
I0705 12:46:31.666193  1385 net.cpp:100] Creating Layer conv6_2_mbox_loc_flat
I0705 12:46:31.666198  1385 net.cpp:434] conv6_2_mbox_loc_flat <- conv6_2_mbox_loc_perm
I0705 12:46:31.666203  1385 net.cpp:408] conv6_2_mbox_loc_flat -> conv6_2_mbox_loc_flat
I0705 12:46:31.666226  1385 net.cpp:150] Setting up conv6_2_mbox_loc_flat
I0705 12:46:31.666231  1385 net.cpp:157] Top shape: 32 2400 (76800)
I0705 12:46:31.666234  1385 net.cpp:165] Memory required for data: 7926983648
I0705 12:46:31.666239  1385 layer_factory.hpp:77] Creating layer conv6_2_mbox_conf
I0705 12:46:31.666249  1385 net.cpp:100] Creating Layer conv6_2_mbox_conf
I0705 12:46:31.666252  1385 net.cpp:434] conv6_2_mbox_conf <- conv6_2_conv6_2_relu_0_split_2
I0705 12:46:31.666260  1385 net.cpp:408] conv6_2_mbox_conf -> conv6_2_mbox_conf
I0705 12:46:31.667620  1385 net.cpp:150] Setting up conv6_2_mbox_conf
I0705 12:46:31.667631  1385 net.cpp:157] Top shape: 32 12 10 10 (38400)
I0705 12:46:31.667634  1385 net.cpp:165] Memory required for data: 7927137248
I0705 12:46:31.667642  1385 layer_factory.hpp:77] Creating layer conv6_2_mbox_conf_perm
I0705 12:46:31.667651  1385 net.cpp:100] Creating Layer conv6_2_mbox_conf_perm
I0705 12:46:31.667656  1385 net.cpp:434] conv6_2_mbox_conf_perm <- conv6_2_mbox_conf
I0705 12:46:31.667663  1385 net.cpp:408] conv6_2_mbox_conf_perm -> conv6_2_mbox_conf_perm
I0705 12:46:31.667764  1385 net.cpp:150] Setting up conv6_2_mbox_conf_perm
I0705 12:46:31.667771  1385 net.cpp:157] Top shape: 32 10 10 12 (38400)
I0705 12:46:31.667774  1385 net.cpp:165] Memory required for data: 7927290848
I0705 12:46:31.667778  1385 layer_factory.hpp:77] Creating layer conv6_2_mbox_conf_flat
I0705 12:46:31.667798  1385 net.cpp:100] Creating Layer conv6_2_mbox_conf_flat
I0705 12:46:31.667803  1385 net.cpp:434] conv6_2_mbox_conf_flat <- conv6_2_mbox_conf_perm
I0705 12:46:31.667809  1385 net.cpp:408] conv6_2_mbox_conf_flat -> conv6_2_mbox_conf_flat
I0705 12:46:31.667831  1385 net.cpp:150] Setting up conv6_2_mbox_conf_flat
I0705 12:46:31.667836  1385 net.cpp:157] Top shape: 32 1200 (38400)
I0705 12:46:31.667840  1385 net.cpp:165] Memory required for data: 7927444448
I0705 12:46:31.667843  1385 layer_factory.hpp:77] Creating layer conv6_2_mbox_priorbox
I0705 12:46:31.667865  1385 net.cpp:100] Creating Layer conv6_2_mbox_priorbox
I0705 12:46:31.667868  1385 net.cpp:434] conv6_2_mbox_priorbox <- conv6_2_conv6_2_relu_0_split_3
I0705 12:46:31.667898  1385 net.cpp:434] conv6_2_mbox_priorbox <- data_data_0_split_3
I0705 12:46:31.667907  1385 net.cpp:408] conv6_2_mbox_priorbox -> conv6_2_mbox_priorbox
I0705 12:46:31.667933  1385 net.cpp:150] Setting up conv6_2_mbox_priorbox
I0705 12:46:31.667938  1385 net.cpp:157] Top shape: 1 2 2400 (4800)
I0705 12:46:31.667942  1385 net.cpp:165] Memory required for data: 7927463648
I0705 12:46:31.667944  1385 layer_factory.hpp:77] Creating layer conv7_2_mbox_loc
I0705 12:46:31.667980  1385 net.cpp:100] Creating Layer conv7_2_mbox_loc
I0705 12:46:31.667985  1385 net.cpp:434] conv7_2_mbox_loc <- conv7_2_conv7_2_relu_0_split_1
I0705 12:46:31.667992  1385 net.cpp:408] conv7_2_mbox_loc -> conv7_2_mbox_loc
I0705 12:46:31.669548  1385 net.cpp:150] Setting up conv7_2_mbox_loc
I0705 12:46:31.669569  1385 net.cpp:157] Top shape: 32 24 5 5 (19200)
I0705 12:46:31.669571  1385 net.cpp:165] Memory required for data: 7927540448
I0705 12:46:31.669584  1385 layer_factory.hpp:77] Creating layer conv7_2_mbox_loc_perm
I0705 12:46:31.669597  1385 net.cpp:100] Creating Layer conv7_2_mbox_loc_perm
I0705 12:46:31.669605  1385 net.cpp:434] conv7_2_mbox_loc_perm <- conv7_2_mbox_loc
I0705 12:46:31.669615  1385 net.cpp:408] conv7_2_mbox_loc_perm -> conv7_2_mbox_loc_perm
I0705 12:46:31.669725  1385 net.cpp:150] Setting up conv7_2_mbox_loc_perm
I0705 12:46:31.669730  1385 net.cpp:157] Top shape: 32 5 5 24 (19200)
I0705 12:46:31.669734  1385 net.cpp:165] Memory required for data: 7927617248
I0705 12:46:31.669737  1385 layer_factory.hpp:77] Creating layer conv7_2_mbox_loc_flat
I0705 12:46:31.669744  1385 net.cpp:100] Creating Layer conv7_2_mbox_loc_flat
I0705 12:46:31.669747  1385 net.cpp:434] conv7_2_mbox_loc_flat <- conv7_2_mbox_loc_perm
I0705 12:46:31.669754  1385 net.cpp:408] conv7_2_mbox_loc_flat -> conv7_2_mbox_loc_flat
I0705 12:46:31.669780  1385 net.cpp:150] Setting up conv7_2_mbox_loc_flat
I0705 12:46:31.669785  1385 net.cpp:157] Top shape: 32 600 (19200)
I0705 12:46:31.669787  1385 net.cpp:165] Memory required for data: 7927694048
I0705 12:46:31.669790  1385 layer_factory.hpp:77] Creating layer conv7_2_mbox_conf
I0705 12:46:31.669802  1385 net.cpp:100] Creating Layer conv7_2_mbox_conf
I0705 12:46:31.669806  1385 net.cpp:434] conv7_2_mbox_conf <- conv7_2_conv7_2_relu_0_split_2
I0705 12:46:31.669817  1385 net.cpp:408] conv7_2_mbox_conf -> conv7_2_mbox_conf
I0705 12:46:31.671188  1385 net.cpp:150] Setting up conv7_2_mbox_conf
I0705 12:46:31.671203  1385 net.cpp:157] Top shape: 32 12 5 5 (9600)
I0705 12:46:31.671207  1385 net.cpp:165] Memory required for data: 7927732448
I0705 12:46:31.671229  1385 layer_factory.hpp:77] Creating layer conv7_2_mbox_conf_perm
I0705 12:46:31.671241  1385 net.cpp:100] Creating Layer conv7_2_mbox_conf_perm
I0705 12:46:31.671250  1385 net.cpp:434] conv7_2_mbox_conf_perm <- conv7_2_mbox_conf
I0705 12:46:31.671259  1385 net.cpp:408] conv7_2_mbox_conf_perm -> conv7_2_mbox_conf_perm
I0705 12:46:31.671381  1385 net.cpp:150] Setting up conv7_2_mbox_conf_perm
I0705 12:46:31.671387  1385 net.cpp:157] Top shape: 32 5 5 12 (9600)
I0705 12:46:31.671389  1385 net.cpp:165] Memory required for data: 7927770848
I0705 12:46:31.671392  1385 layer_factory.hpp:77] Creating layer conv7_2_mbox_conf_flat
I0705 12:46:31.671396  1385 net.cpp:100] Creating Layer conv7_2_mbox_conf_flat
I0705 12:46:31.671399  1385 net.cpp:434] conv7_2_mbox_conf_flat <- conv7_2_mbox_conf_perm
I0705 12:46:31.671403  1385 net.cpp:408] conv7_2_mbox_conf_flat -> conv7_2_mbox_conf_flat
I0705 12:46:31.671423  1385 net.cpp:150] Setting up conv7_2_mbox_conf_flat
I0705 12:46:31.671427  1385 net.cpp:157] Top shape: 32 300 (9600)
I0705 12:46:31.671428  1385 net.cpp:165] Memory required for data: 7927809248
I0705 12:46:31.671430  1385 layer_factory.hpp:77] Creating layer conv7_2_mbox_priorbox
I0705 12:46:31.671437  1385 net.cpp:100] Creating Layer conv7_2_mbox_priorbox
I0705 12:46:31.671438  1385 net.cpp:434] conv7_2_mbox_priorbox <- conv7_2_conv7_2_relu_0_split_3
I0705 12:46:31.671442  1385 net.cpp:434] conv7_2_mbox_priorbox <- data_data_0_split_4
I0705 12:46:31.671464  1385 net.cpp:408] conv7_2_mbox_priorbox -> conv7_2_mbox_priorbox
I0705 12:46:31.671494  1385 net.cpp:150] Setting up conv7_2_mbox_priorbox
I0705 12:46:31.671500  1385 net.cpp:157] Top shape: 1 2 600 (1200)
I0705 12:46:31.671504  1385 net.cpp:165] Memory required for data: 7927814048
I0705 12:46:31.671506  1385 layer_factory.hpp:77] Creating layer conv8_2_mbox_loc
I0705 12:46:31.671519  1385 net.cpp:100] Creating Layer conv8_2_mbox_loc
I0705 12:46:31.671524  1385 net.cpp:434] conv8_2_mbox_loc <- conv8_2_conv8_2_relu_0_split_1
I0705 12:46:31.671531  1385 net.cpp:408] conv8_2_mbox_loc -> conv8_2_mbox_loc
I0705 12:46:31.673018  1385 net.cpp:150] Setting up conv8_2_mbox_loc
I0705 12:46:31.673034  1385 net.cpp:157] Top shape: 32 16 3 3 (4608)
I0705 12:46:31.673038  1385 net.cpp:165] Memory required for data: 7927832480
I0705 12:46:31.673071  1385 layer_factory.hpp:77] Creating layer conv8_2_mbox_loc_perm
I0705 12:46:31.673084  1385 net.cpp:100] Creating Layer conv8_2_mbox_loc_perm
I0705 12:46:31.673101  1385 net.cpp:434] conv8_2_mbox_loc_perm <- conv8_2_mbox_loc
I0705 12:46:31.673108  1385 net.cpp:408] conv8_2_mbox_loc_perm -> conv8_2_mbox_loc_perm
I0705 12:46:31.673225  1385 net.cpp:150] Setting up conv8_2_mbox_loc_perm
I0705 12:46:31.673233  1385 net.cpp:157] Top shape: 32 3 3 16 (4608)
I0705 12:46:31.673250  1385 net.cpp:165] Memory required for data: 7927850912
I0705 12:46:31.673254  1385 layer_factory.hpp:77] Creating layer conv8_2_mbox_loc_flat
I0705 12:46:31.673260  1385 net.cpp:100] Creating Layer conv8_2_mbox_loc_flat
I0705 12:46:31.673264  1385 net.cpp:434] conv8_2_mbox_loc_flat <- conv8_2_mbox_loc_perm
I0705 12:46:31.673272  1385 net.cpp:408] conv8_2_mbox_loc_flat -> conv8_2_mbox_loc_flat
I0705 12:46:31.673322  1385 net.cpp:150] Setting up conv8_2_mbox_loc_flat
I0705 12:46:31.673327  1385 net.cpp:157] Top shape: 32 144 (4608)
I0705 12:46:31.673331  1385 net.cpp:165] Memory required for data: 7927869344
I0705 12:46:31.673334  1385 layer_factory.hpp:77] Creating layer conv8_2_mbox_conf
I0705 12:46:31.673358  1385 net.cpp:100] Creating Layer conv8_2_mbox_conf
I0705 12:46:31.673362  1385 net.cpp:434] conv8_2_mbox_conf <- conv8_2_conv8_2_relu_0_split_2
I0705 12:46:31.673383  1385 net.cpp:408] conv8_2_mbox_conf -> conv8_2_mbox_conf
I0705 12:46:31.674652  1385 net.cpp:150] Setting up conv8_2_mbox_conf
I0705 12:46:31.674662  1385 net.cpp:157] Top shape: 32 8 3 3 (2304)
I0705 12:46:31.674665  1385 net.cpp:165] Memory required for data: 7927878560
I0705 12:46:31.674674  1385 layer_factory.hpp:77] Creating layer conv8_2_mbox_conf_perm
I0705 12:46:31.674682  1385 net.cpp:100] Creating Layer conv8_2_mbox_conf_perm
I0705 12:46:31.674688  1385 net.cpp:434] conv8_2_mbox_conf_perm <- conv8_2_mbox_conf
I0705 12:46:31.674697  1385 net.cpp:408] conv8_2_mbox_conf_perm -> conv8_2_mbox_conf_perm
I0705 12:46:31.674787  1385 net.cpp:150] Setting up conv8_2_mbox_conf_perm
I0705 12:46:31.674793  1385 net.cpp:157] Top shape: 32 3 3 8 (2304)
I0705 12:46:31.674796  1385 net.cpp:165] Memory required for data: 7927887776
I0705 12:46:31.674799  1385 layer_factory.hpp:77] Creating layer conv8_2_mbox_conf_flat
I0705 12:46:31.674805  1385 net.cpp:100] Creating Layer conv8_2_mbox_conf_flat
I0705 12:46:31.674810  1385 net.cpp:434] conv8_2_mbox_conf_flat <- conv8_2_mbox_conf_perm
I0705 12:46:31.674818  1385 net.cpp:408] conv8_2_mbox_conf_flat -> conv8_2_mbox_conf_flat
I0705 12:46:31.674840  1385 net.cpp:150] Setting up conv8_2_mbox_conf_flat
I0705 12:46:31.674846  1385 net.cpp:157] Top shape: 32 72 (2304)
I0705 12:46:31.674849  1385 net.cpp:165] Memory required for data: 7927896992
I0705 12:46:31.674852  1385 layer_factory.hpp:77] Creating layer conv8_2_mbox_priorbox
I0705 12:46:31.674860  1385 net.cpp:100] Creating Layer conv8_2_mbox_priorbox
I0705 12:46:31.674863  1385 net.cpp:434] conv8_2_mbox_priorbox <- conv8_2_conv8_2_relu_0_split_3
I0705 12:46:31.674870  1385 net.cpp:434] conv8_2_mbox_priorbox <- data_data_0_split_5
I0705 12:46:31.674877  1385 net.cpp:408] conv8_2_mbox_priorbox -> conv8_2_mbox_priorbox
I0705 12:46:31.674918  1385 net.cpp:150] Setting up conv8_2_mbox_priorbox
I0705 12:46:31.674924  1385 net.cpp:157] Top shape: 1 2 144 (288)
I0705 12:46:31.674928  1385 net.cpp:165] Memory required for data: 7927898144
I0705 12:46:31.674932  1385 layer_factory.hpp:77] Creating layer conv9_2_mbox_loc
I0705 12:46:31.674942  1385 net.cpp:100] Creating Layer conv9_2_mbox_loc
I0705 12:46:31.674947  1385 net.cpp:434] conv9_2_mbox_loc <- conv9_2_conv9_2_relu_0_split_0
I0705 12:46:31.674953  1385 net.cpp:408] conv9_2_mbox_loc -> conv9_2_mbox_loc
I0705 12:46:31.676288  1385 net.cpp:150] Setting up conv9_2_mbox_loc
I0705 12:46:31.676300  1385 net.cpp:157] Top shape: 32 16 1 1 (512)
I0705 12:46:31.676302  1385 net.cpp:165] Memory required for data: 7927900192
I0705 12:46:31.676311  1385 layer_factory.hpp:77] Creating layer conv9_2_mbox_loc_perm
I0705 12:46:31.676318  1385 net.cpp:100] Creating Layer conv9_2_mbox_loc_perm
I0705 12:46:31.676323  1385 net.cpp:434] conv9_2_mbox_loc_perm <- conv9_2_mbox_loc
I0705 12:46:31.676331  1385 net.cpp:408] conv9_2_mbox_loc_perm -> conv9_2_mbox_loc_perm
I0705 12:46:31.676420  1385 net.cpp:150] Setting up conv9_2_mbox_loc_perm
I0705 12:46:31.676426  1385 net.cpp:157] Top shape: 32 1 1 16 (512)
I0705 12:46:31.676429  1385 net.cpp:165] Memory required for data: 7927902240
I0705 12:46:31.676432  1385 layer_factory.hpp:77] Creating layer conv9_2_mbox_loc_flat
I0705 12:46:31.676441  1385 net.cpp:100] Creating Layer conv9_2_mbox_loc_flat
I0705 12:46:31.676446  1385 net.cpp:434] conv9_2_mbox_loc_flat <- conv9_2_mbox_loc_perm
I0705 12:46:31.676451  1385 net.cpp:408] conv9_2_mbox_loc_flat -> conv9_2_mbox_loc_flat
I0705 12:46:31.676475  1385 net.cpp:150] Setting up conv9_2_mbox_loc_flat
I0705 12:46:31.676479  1385 net.cpp:157] Top shape: 32 16 (512)
I0705 12:46:31.676482  1385 net.cpp:165] Memory required for data: 7927904288
I0705 12:46:31.676486  1385 layer_factory.hpp:77] Creating layer conv9_2_mbox_conf
I0705 12:46:31.676496  1385 net.cpp:100] Creating Layer conv9_2_mbox_conf
I0705 12:46:31.676501  1385 net.cpp:434] conv9_2_mbox_conf <- conv9_2_conv9_2_relu_0_split_1
I0705 12:46:31.676508  1385 net.cpp:408] conv9_2_mbox_conf -> conv9_2_mbox_conf
I0705 12:46:31.677855  1385 net.cpp:150] Setting up conv9_2_mbox_conf
I0705 12:46:31.677868  1385 net.cpp:157] Top shape: 32 8 1 1 (256)
I0705 12:46:31.677871  1385 net.cpp:165] Memory required for data: 7927905312
I0705 12:46:31.677881  1385 layer_factory.hpp:77] Creating layer conv9_2_mbox_conf_perm
I0705 12:46:31.677889  1385 net.cpp:100] Creating Layer conv9_2_mbox_conf_perm
I0705 12:46:31.677896  1385 net.cpp:434] conv9_2_mbox_conf_perm <- conv9_2_mbox_conf
I0705 12:46:31.677902  1385 net.cpp:408] conv9_2_mbox_conf_perm -> conv9_2_mbox_conf_perm
I0705 12:46:31.677995  1385 net.cpp:150] Setting up conv9_2_mbox_conf_perm
I0705 12:46:31.678000  1385 net.cpp:157] Top shape: 32 1 1 8 (256)
I0705 12:46:31.678004  1385 net.cpp:165] Memory required for data: 7927906336
I0705 12:46:31.678007  1385 layer_factory.hpp:77] Creating layer conv9_2_mbox_conf_flat
I0705 12:46:31.678014  1385 net.cpp:100] Creating Layer conv9_2_mbox_conf_flat
I0705 12:46:31.678020  1385 net.cpp:434] conv9_2_mbox_conf_flat <- conv9_2_mbox_conf_perm
I0705 12:46:31.678025  1385 net.cpp:408] conv9_2_mbox_conf_flat -> conv9_2_mbox_conf_flat
I0705 12:46:31.678048  1385 net.cpp:150] Setting up conv9_2_mbox_conf_flat
I0705 12:46:31.678053  1385 net.cpp:157] Top shape: 32 8 (256)
I0705 12:46:31.678056  1385 net.cpp:165] Memory required for data: 7927907360
I0705 12:46:31.678059  1385 layer_factory.hpp:77] Creating layer conv9_2_mbox_priorbox
I0705 12:46:31.678068  1385 net.cpp:100] Creating Layer conv9_2_mbox_priorbox
I0705 12:46:31.678072  1385 net.cpp:434] conv9_2_mbox_priorbox <- conv9_2_conv9_2_relu_0_split_2
I0705 12:46:31.678077  1385 net.cpp:434] conv9_2_mbox_priorbox <- data_data_0_split_6
I0705 12:46:31.678083  1385 net.cpp:408] conv9_2_mbox_priorbox -> conv9_2_mbox_priorbox
I0705 12:46:31.678110  1385 net.cpp:150] Setting up conv9_2_mbox_priorbox
I0705 12:46:31.678115  1385 net.cpp:157] Top shape: 1 2 16 (32)
I0705 12:46:31.678129  1385 net.cpp:165] Memory required for data: 7927907488
I0705 12:46:31.678133  1385 layer_factory.hpp:77] Creating layer mbox_loc
I0705 12:46:31.678143  1385 net.cpp:100] Creating Layer mbox_loc
I0705 12:46:31.678146  1385 net.cpp:434] mbox_loc <- conv4_3_norm_mbox_loc_flat
I0705 12:46:31.678153  1385 net.cpp:434] mbox_loc <- fc7_mbox_loc_flat
I0705 12:46:31.678158  1385 net.cpp:434] mbox_loc <- conv6_2_mbox_loc_flat
I0705 12:46:31.678164  1385 net.cpp:434] mbox_loc <- conv7_2_mbox_loc_flat
I0705 12:46:31.678169  1385 net.cpp:434] mbox_loc <- conv8_2_mbox_loc_flat
I0705 12:46:31.678174  1385 net.cpp:434] mbox_loc <- conv9_2_mbox_loc_flat
I0705 12:46:31.678179  1385 net.cpp:408] mbox_loc -> mbox_loc
I0705 12:46:31.678206  1385 net.cpp:150] Setting up mbox_loc
I0705 12:46:31.678212  1385 net.cpp:157] Top shape: 32 34928 (1117696)
I0705 12:46:31.678215  1385 net.cpp:165] Memory required for data: 7932378272
I0705 12:46:31.678218  1385 layer_factory.hpp:77] Creating layer mbox_conf
I0705 12:46:31.678225  1385 net.cpp:100] Creating Layer mbox_conf
I0705 12:46:31.678228  1385 net.cpp:434] mbox_conf <- conv4_3_norm_mbox_conf_flat
I0705 12:46:31.678233  1385 net.cpp:434] mbox_conf <- fc7_mbox_conf_flat
I0705 12:46:31.678238  1385 net.cpp:434] mbox_conf <- conv6_2_mbox_conf_flat
I0705 12:46:31.678244  1385 net.cpp:434] mbox_conf <- conv7_2_mbox_conf_flat
I0705 12:46:31.678248  1385 net.cpp:434] mbox_conf <- conv8_2_mbox_conf_flat
I0705 12:46:31.678252  1385 net.cpp:434] mbox_conf <- conv9_2_mbox_conf_flat
I0705 12:46:31.678261  1385 net.cpp:408] mbox_conf -> mbox_conf
I0705 12:46:31.678282  1385 net.cpp:150] Setting up mbox_conf
I0705 12:46:31.678287  1385 net.cpp:157] Top shape: 32 17464 (558848)
I0705 12:46:31.678290  1385 net.cpp:165] Memory required for data: 7934613664
I0705 12:46:31.678293  1385 layer_factory.hpp:77] Creating layer mbox_priorbox
I0705 12:46:31.678298  1385 net.cpp:100] Creating Layer mbox_priorbox
I0705 12:46:31.678303  1385 net.cpp:434] mbox_priorbox <- conv4_3_norm_mbox_priorbox
I0705 12:46:31.678306  1385 net.cpp:434] mbox_priorbox <- fc7_mbox_priorbox
I0705 12:46:31.678310  1385 net.cpp:434] mbox_priorbox <- conv6_2_mbox_priorbox
I0705 12:46:31.678316  1385 net.cpp:434] mbox_priorbox <- conv7_2_mbox_priorbox
I0705 12:46:31.678320  1385 net.cpp:434] mbox_priorbox <- conv8_2_mbox_priorbox
I0705 12:46:31.678323  1385 net.cpp:434] mbox_priorbox <- conv9_2_mbox_priorbox
I0705 12:46:31.678330  1385 net.cpp:408] mbox_priorbox -> mbox_priorbox
I0705 12:46:31.678352  1385 net.cpp:150] Setting up mbox_priorbox
I0705 12:46:31.678359  1385 net.cpp:157] Top shape: 1 2 34928 (69856)
I0705 12:46:31.678361  1385 net.cpp:165] Memory required for data: 7934893088
I0705 12:46:31.678364  1385 layer_factory.hpp:77] Creating layer mbox_loss
I0705 12:46:31.678375  1385 net.cpp:100] Creating Layer mbox_loss
I0705 12:46:31.678378  1385 net.cpp:434] mbox_loss <- mbox_loc
I0705 12:46:31.678382  1385 net.cpp:434] mbox_loss <- mbox_conf
I0705 12:46:31.678386  1385 net.cpp:434] mbox_loss <- mbox_priorbox
…
state {
  phase: TEST
}
layer {
  name: "data"
  type: "AnnotatedData"
  top: "data"
  top: "label"
  include {
    phase: TEST
  }
  transform_param {
    mean_value: 104
    mean_value: 117
    mean_value: 123
    resize_param {
      prob: 1
      resize_mode: WARP
      height: 300
      width: 300
      interp_mode: LINEAR
    }
  }
  data_param {
    source: "examples/VOC2007/VOC2007_test_lmdb"
    batch_size: 8
    backend: LMDB
  }
  annotated_data_param {
    batch_sampler {
    }
    label_map_file: "data/VOC2007/labelmap_voc.prototxt"
  }
}
layer {
  name: "conv1_1"
  type: "Convolution"
  bottom: "data"
  top: "conv1_1"
  param {
    lr_mult: 1
    decay_mult: 1
  }
  param {
    lr_mult: 2
    decay_mult: 0
  }
  convolution_param {
    num_output: 64
    pad: 1
    kernel_size: 3
    weight_filler {
      type: "xavier"
    }
    bias_filler {
      type: "constant"
      value: 0
    }
  }
}
layer {
  name: "relu1_1"
  type: "ReLU"
  bottom: "conv1_1"
  top: "conv1_1"
}
layer {
  name: "conv1_2"
  type: "Convolution"
  bottom: "conv1_1"
  top: "conv1_2"
  param {
    lr_mult: 1
    decay_mult: 1
  }
  param {
    lr_mult: 2
    decay_mult: 0
  }
  convolution_param {
    num_output: 64
    pad: 1
    kernel_size: 3
    weight_filler {
      type: "xavier"
    }
    bias_filler {
      type: "constant"
      value: 0
    }
  }
}
layer {
  name: "relu1_2"
  type: "ReLU"
  bottom: "conv1_2"
  top: "conv1_2"
}
layer {
  name: "pool1"
  type: "Pooling"
  bottom: "conv1_2"
  top: "pool1"
  pooling_param {
    pool: MAX
    kernel_size: 2
    stride: 2
  }
}
layer {
  name: "conv2_1"
  type: "Convolution"
  bottom: "pool1"
  top: "conv2_1"
  param {
    lr_mult: 1
    decay_mult: 1
  }
  param {
    lr_mult: 2
    decay_mult: 0
  }
  convolution_param {
    num_output: 128
    pad: 1
    kernel_size: 3
    weight_filler {
      type: "xavier"
    }
    bias_filler {
      type: "constant"
      value: 0
    }
  }
}
layer {
  name: "relu2_1"
  type: "ReLU"
  bottom: "conv2_1"
  top: "conv2_1"
}
layer {
  name: "conv2_2"
  type: "Convolution"
  bottom: "conv2_1"
  top: "conv2_2"
  param {
    lr_mult: 1
    decay_mult: 1
  }
  param {
    lr_mult: 2
    decay_mult: 0
  }
  convolution_param {
    num_output: 128
    pad: 1
    kernel_size: 3
    weight_filler {
      type: "xavier"
    }
    bias_filler {
      type: "constant"
      value: 0
    }
  }
}
layer {
  name: "relu2_2"
  type: "ReLU"
  bottom: "conv2_2"
  top: "conv2_2"
}
layer {
  name: "pool2"
  type: "Pooling"
  bottom: "conv2_2"
  top: "pool2"
  pooling_param {
    pool: MAX
    kernel_size: 2
    stride: 2
  }
}
layer {
  name: "conv3_1"
  type: "Convolution"
  bottom: "pool2"
  top: "conv3_1"
  param {
    lr_mult: 1
    decay_mult: 1
  }
  param {
    lr_mult: 2
    decay_mult: 0
  }
  convolution_param {
    num_output: 256
    pad: 1
    kernel_size: 3
    weight_filler {
      type: "xavier"
    }
    bias_filler {
      type: "constant"
      value: 0
    }
  }
}
layer {
  name: "relu3_1"
  type: "ReLU"
  bottom: "conv3_1"
  top: "conv3_1"
}
layer {
  name: "conv3_2"
  type: "Convolution"
  bottom: "conv3_1"
  top: "conv3_2"
  param {
    lr_mult: 1
    decay_mult: 1
  }
  param {
    lr_mult: 2
    decay_mult: 0
  }
  convolution_param {
    num_output: 256
    pad: 1
    kernel_size: 3
    weight_filler {
      type: "xavier"
    }
    bias_filler {
      type: "constant"
      value: 0
    }
  }
}
layer {
  name: "relu3_2"
  type: "ReLU"
  bottom: "conv3_2"
  top: "conv3_2"
}
layer {
  name: "conv3_3"
  type: "Convolution"
  bottom: "conv3_2"
  top: "conv3_3"
  param {
    lr_mult: 1
    decay_mult: 1
  }
  param {
    lr_mult: 2
    decay_mult: 0
  }
  convolution_param {
    num_output: 256
    pad: 1
    kernel_size: 3
    weight_filler {
      type: "xavier"
    }
    bias_filler {
      type: "constant"
      value: 0
    }
  }
}
layer {
  name: "relu3_3"
  type: "ReLU"
  bottom: "conv3_3"
  top: "conv3_3"
}
layer {
  name: "pool3"
  type: "Pooling"
  bottom: "conv3_3"
  top: "pool3"
  pooling_param {
    pool: MAX
    kernel_size: 2
    stride: 2
  }
}
layer {
  name: "conv4_1"
  type: "Convolution"
  bottom: "pool3"
  top: "conv4_1"
  param {
    lr_mult: 1
    decay_mult: 1
  }
  param {
    lr_mult: 2
    decay_mult: 0
  }
  convolution_param {
    num_output: 512
    pad: 1
    kernel_size: 3
    weight_filler {
      type: "xavier"
    }
    bias_filler {
      type: "constant"
      value: 0
    }
  }
}
layer {
  name: "relu4_1"
  type: "ReLU"
  bottom: "conv4_1"
  top: "conv4_1"
}
layer {
  name: "conv4_2"
  type: "Convolution"
  bottom: "conv4_1"
  top: "conv4_2"
  param {
    lr_mult: 1
    decay_mult: 1
  }
  param {
    lr_mult: 2
    decay_mult: 0
  }
  convolution_param {
    num_output: 512
    pad: 1
    kernel_size: 3
    weight_filler {
      type: "xavier"
    }
    bias_filler {
      type: "constant"
      value: 0
    }
  }
}
layer {
  name: "relu4_2"
  type: "ReLU"
  bottom: "conv4_2"
  top: "conv4_2"
}
layer {
  name: "conv4_3"
  type: "Convolution"
  bottom: "conv4_2"
  top: "conv4_3"
  param {
    lr_mult: 1
    decay_mult: 1
  }
  param {
    lr_mult: 2
    decay_mult: 0
  }
  convolution_param {
    num_output: 512
    pad: 1
    kernel_size: 3
    weight_filler {
      type: "xavier"
    }
    bias_filler {
      type: "constant"
      value: 0
    }
  }
}
layer {
  name: "relu4_3"
  type: "ReLU"
  bottom: "conv4_3"
  top: "conv4_3"
}
layer {
  name: "pool4"
  type: "Pooling"
  bottom: "conv4_3"
  top: "pool4"
  pooling_param {
    pool: MAX
    kernel_size: 2
    stride: 2
  }
}
layer {
  name: "conv5_1"
  type: "Convolution"
  bottom: "pool4"
  top: "conv5_1"
  param {
    lr_mult: 1
    decay_mult: 1
  }
  param {
    lr_mult: 2
    decay_mult: 0
  }
  convolution_param {
    num_output: 512
    pad: 1
    kernel_size: 3
    weight_filler {
      type: "xavier"
    }
    bias_filler {
      type: "constant"
      value: 0
    }
    dilation: 1
  }
}
layer {
  name: "relu5_1"
  type: "ReLU"
  bottom: "conv5_1"
  top: "conv5_1"
}
layer {
  name: "conv5_2"
  type: "Convolution"
  bottom: "conv5_1"
  top: "conv5_2"
  param {
    lr_mult: 1
    decay_mult: 1
  }
  param {
    lr_mult: 2
    decay_mult: 0
  }
  convolution_param {
    num_output: 512
    pad: 1
    kernel_size: 3
    weight_filler {
      type: "xavier"
    }
    bias_filler {
      type: "constant"
      value: 0
    }
    dilation: 1
  }
}
layer {
  name: "relu5_2"
  type: "ReLU"
  bottom: "conv5_2"
  top: "conv5_2"
}
layer {
  name: "conv5_3"
  type: "Convolution"
  bottom: "conv5_2"
  top: "conv5_3"
  param {
    lr_mult: 1
    decay_mult: 1
  }
  param {
    lr_mult: 2
    decay_mult: 0
  }
  convolution_param {
    num_output: 512
    pad: 1
    kernel_size: 3
    weight_filler {
      type: "xavier"
    }
    bias_filler {
      type: "constant"
      value: 0
    }
    dilation: 1
  }
}
layer {
  name: "relu5_3"
  type: "ReLU"
  bottom: "conv5_3"
  top: "conv5_3"
}
layer {
  name: "pool5"
  type: "Pooling"
  bottom: "conv5_3"
  top: "pool5"
  pooling_param {
    pool: MAX
    kernel_size: 3
    stride: 1
    pad: 1
  }
}
layer {
  name: "fc6"
  type: "Convolution"
  bottom: "pool5"
  top: "fc6"
  param {
    lr_mult: 1
    decay_mult: 1
  }
  param {
    lr_mult: 2
    decay_mult: 0
  }
  convolution_param {
    num_output: 1024
    pad: 6
    kernel_size: 3
    weight_filler {
      type: "xavier"
    }
    bias_filler {
      type: "constant"
      value: 0
    }
    dilation: 6
  }
}
layer {
  name: "relu6"
  type: "ReLU"
  bottom: "fc6"
  top: "fc6"
}
layer {
  name: "fc7"
  type: "Convolution"
  bottom: "fc6"
  top: "fc7"
  param {
    lr_mult: 1
    decay_mult: 1
  }
  param {
    lr_mult: 2
    decay_mult: 0
  }
  convolution_param {
    num_output: 1024
    kernel_size: 1
    weight_filler {
      type: "xavier"
    }
    bias_filler {
      type: "constant"
      value: 0
    }
  }
}
layer {
  name: "relu7"
  type: "ReLU"
  bottom: "fc7"
  top: "fc7"
}
layer {
  name: "conv6_1"
  type: "Convolution"
  bottom: "fc7"
  top: "conv6_1"
  param {
    lr_mult: 1
    decay_mult: 1
  }
  param {
    lr_mult: 2
    decay_mult: 0
  }
  convolution_param {
    num_output: 256
    pad: 0
    kernel_size: 1
    stride: 1
    weight_filler {
      type: "xavier"
    }
    bias_filler {
      type: "constant"
      value: 0
    }
  }
}
layer {
  name: "conv6_1_relu"
  type: "ReLU"
  bottom: "conv6_1"
  top: "conv6_1"
}
layer {
  name: "conv6_2"
  type: "Convolution"
  bottom: "conv6_1"
  top: "conv6_2"
  param {
    lr_mult: 1
    decay_mult: 1
  }
  param {
    lr_mult: 2
    decay_mult: 0
  }
  convolution_param {
    num_output: 512
    pad: 1
    kernel_size: 3
    stride: 2
    weight_filler {
      type: "xavier"
    }
    bias_filler {
      type: "constant"
      value: 0
    }
  }
}
layer {
  name: "conv6_2_relu"
  type: "ReLU"
  bottom: "conv6_2"
  top: "conv6_2"
}
layer {
  name: "conv7_1"
  type: "Convolution"
  bottom: "conv6_2"
  top: "conv7_1"
  param {
    lr_mult: 1
    decay_mult: 1
  }
  param {
    lr_mult: 2
    decay_mult: 0
  }
  convolution_param {
    num_output: 128
    pad: 0
    kernel_size: 1
    stride: 1
    weight_filler {
      type: "xavier"
    }
    bias_filler {
      type: "constant"
      value: 0
    }
  }
}
layer {
  name: "conv7_1_relu"
  type: "ReLU"
  bottom: "conv7_1"
  top: "conv7_1"
}
layer {
  name: "conv7_2"
  type: "Convolution"
  bottom: "conv7_1"
  top: "conv7_2"
  param {
    lr_mult: 1
    decay_mult: 1
  }
  param {
    lr_mult: 2
    decay_mult: 0
  }
  convolution_param {
    num_output: 256
    pad: 1
    kernel_size: 3
    stride: 2
    weight_filler {
      type: "xavier"
    }
    bias_filler {
      type: "constant"
      value: 0
    }
  }
}
layer {
  name: "conv7_2_relu"
  type: "ReLU"
  bottom: "conv7_2"
  top: "conv7_2"
}
layer {
  name: "conv8_1"
  type: "Convolution"
  bottom: "conv7_2"
  top: "conv8_1"
  param {
    lr_mult: 1
    decay_mult: 1
  }
  param {
    lr_mult: 2
    decay_mult: 0
  }
  convolution_param {
    num_output: 128
    pad: 0
    kernel_size: 1
    stride: 1
    weight_filler {
      type: "xavier"
    }
    bias_filler {
      type: "constant"
      value: 0
    }
  }
}
layer {
  name: "conv8_1_relu"
  type: "ReLU"
  bottom: "conv8_1"
  top: "conv8_1"
}
layer {
  name: "conv8_2"
  type: "Convolution"
  bottom: "conv8_1"
  top: "conv8_2"
  param {
    lr_mult: 1
    decay_mult: 1
  }
  param {
    lr_mult: 2
    decay_mult: 0
  }
  convolution_param {
    num_output: 256
    pad: 0
    kernel_size: 3
    stride: 1
    weight_filler {
      type: "xavier"
    }
    bias_filler {
      type: "constant"
      value: 0
    }
  }
}
layer {
  name: "conv8_2_relu"
  type: "ReLU"
  bottom: "conv8_2"
  top: "conv8_2"
}
layer {
  name: "conv9_1"
  type: "Convolution"
  bottom: "conv8_2"
  top: "conv9_1"
  param {
    lr_mult: 1
    decay_mult: 1
  }
  param {
    lr_mult: 2
    decay_mult: 0
  }
  convolution_param {
    num_output: 128
    pad: 0
    kernel_size: 1
    stride: 1
    weight_filler {
      type: "xavier"
    }
    bias_filler {
      type: "constant"
      value: 0
    }
  }
}
layer {
  name: "conv9_1_relu"
  type: "ReLU"
  bottom: "conv9_1"
  top: "conv9_1"
}
layer {
  name: "conv9_2"
  type: "Convolution"
  bottom: "conv9_1"
  top: "conv9_2"
  param {
    lr_mult: 1
    decay_mult: 1
  }
  param {
    lr_mult: 2
    decay_mult: 0
  }
  convolution_param {
    num_output: 256
    pad: 0
    kernel_size: 3
    stride: 1
    weight_filler {
      type: "xavier"
    }
    bias_filler {
      type: "constant"
      value: 0
    }
  }
}
layer {
  name: "conv9_2_relu"
  type: "ReLU"
  bottom: "conv9_2"
  top: "conv9_2"
}
layer {
  name: "conv4_3_norm"
  type: "Normalize"
  bottom: "conv4_3"
  top: "conv4_3_norm"
  norm_param {
    across_spatial: false
    scale_filler {
      type: "constant"
      value: 20
    }
    channel_shared: false
  }
}
layer {
  name: "conv4_3_norm_mbox_loc"
  type: "Convolution"
  bottom: "conv4_3_norm"
  top: "conv4_3_norm_mbox_loc"
  param {
    lr_mult: 1
    decay_mult: 1
  }
  param {
    lr_mult: 2
    decay_mult: 0
  }
  convolution_param {
    num_output: 16
    pad: 1
    kernel_size: 3
    stride: 1
    weight_filler {
      type: "xavier"
    }
    bias_filler {
      type: "constant"
      value: 0
    }
  }
}
layer {
  name: "conv4_3_norm_mbox_loc_perm"
  type: "Permute"
  bottom: "conv4_3_norm_mbox_loc"
  top: "conv4_3_norm_mbox_loc_perm"
  permute_param {
    order: 0
    order: 2
    order: 3
    order: 1
  }
}
layer {
  name: "conv4_3_norm_mbox_loc_flat"
  type: "Flatten"
  bottom: "conv4_3_norm_mbox_loc_perm"
  top: "conv4_3_norm_mbox_loc_flat"
  flatten_param {
    axis: 1
  }
}
layer {
  name: "conv4_3_norm_mbox_conf"
  type: "Convolution"
  bottom: "conv4_3_norm"
  top: "conv4_3_norm_mbox_conf"
  param {
    lr_mult: 1
    decay_mult: 1
  }
  param {
    lr_mult: 2
    decay_mult: 0
  }
  convolution_param {
    num_output: 8
    pad: 1
    kernel_size: 3
    stride: 1
    weight_filler {
      type: "xavier"
    }
    bias_filler {
      type: "constant"
      value: 0
    }
  }
}
layer {
  name: "conv4_3_norm_mbox_conf_perm"
  type: "Permute"
  bottom: "conv4_3_norm_mbox_conf"
  top: "conv4_3_norm_mbox_conf_perm"
  permute_param {
    order: 0
    order: 2
    order: 3
    order: 1
  }
}
layer {
  name: "conv4_3_norm_mbox_conf_flat"
  type: "Flatten"
  bottom: "conv4_3_norm_mbox_conf_perm"
  top: "conv4_3_norm_mbox_conf_flat"
  flatten_param {
    axis: 1
  }
}
layer {
  name: "conv4_3_norm_mbox_priorbox"
  type: "PriorBox"
  bottom: "conv4_3_norm"
  bottom: "data"
  top: "conv4_3_norm_mbox_priorbox"
  prior_box_param {
    min_size: 21
    max_size: 45
    aspect_ratio: 2
    flip: true
    clip: false
    variance: 0.1
    variance: 0.1
    variance: 0.2
    variance: 0.2
    step: 8
    offset: 0.5
  }
}
layer {
  name: "fc7_mbox_loc"
  type: "Convolution"
  bottom: "fc7"
  top: "fc7_mbox_loc"
  param {
    lr_mult: 1
    decay_mult: 1
  }
  param {
    lr_mult: 2
    decay_mult: 0
  }
  convolution_param {
    num_output: 24
    pad: 1
    kernel_size: 3
    stride: 1
    weight_filler {
      type: "xavier"
    }
    bias_filler {
      type: "constant"
      value: 0
    }
  }
}
layer {
  name: "fc7_mbox_loc_perm"
  type: "Permute"
  bottom: "fc7_mbox_loc"
  top: "fc7_mbox_loc_perm"
  permute_param {
    order: 0
    order: 2
    order: 3
    order: 1
  }
}
layer {
  name: "fc7_mbox_loc_flat"
  type: "Flatten"
  bottom: "fc7_mbox_loc_perm"
  top: "fc7_mbox_loc_flat"
  flatten_param {
    axis: 1
  }
}
layer {
  name: "fc7_mbox_conf"
  type: "Convolution"
  bottom: "fc7"
  top: "fc7_mbox_conf"
  param {
    lr_mult: 1
    decay_mult: 1
  }
  param {
    lr_mult: 2
    decay_mult: 0
  }
  convolution_param {
    num_output: 12
    pad: 1
    kernel_size: 3
    stride: 1
    weight_filler {
      type: "xavier"
    }
    bias_filler {
      type: "constant"
      value: 0
    }
  }
}
layer {
  name: "fc7_mbox_conf_perm"
  type: "Permute"
  bottom: "fc7_mbox_conf"
  top: "fc7_mbox_conf_perm"
  permute_param {
    order: 0
    order: 2
    order: 3
    order: 1
  }
}
layer {
  name: "fc7_mbox_conf_flat"
  type: "Flatten"
  bottom: "fc7_mbox_conf_perm"
  top: "fc7_mbox_conf_flat"
  flatten_param {
    axis: 1
  }
}
layer {
  name: "fc7_mbox_priorbox"
  type: "PriorBox"
  bottom: "fc7"
  bottom: "data"
  top: "fc7_mbox_priorbox"
  prior_box_param {
    min_size: 45
    max_size: 99
    aspect_ratio: 2
    aspect_ratio: 3
    flip: true
    clip: false
    variance: 0.1
    variance: 0.1
    variance: 0.2
    variance: 0.2
    step: 16
    offset: 0.5
  }
}
layer {
  name: "conv6_2_mbox_loc"
  type: "Convolution"
  bottom: "conv6_2"
  top: "conv6_2_mbox_loc"
  param {
    lr_mult: 1
    decay_mult: 1
  }
  param {
    lr_mult: 2
    decay_mult: 0
  }
  convolution_param {
    num_output: 24
    pad: 1
    kernel_size: 3
    stride: 1
    weight_filler {
      type: "xavier"
    }
    bias_filler {
      type: "constant"
      value: 0
    }
  }
}
layer {
  name: "conv6_2_mbox_loc_perm"
  type: "Permute"
  bottom: "conv6_2_mbox_loc"
  top: "conv6_2_mbox_loc_perm"
  permute_param {
    order: 0
    order: 2
    order: 3
    order: 1
  }
}
layer {
  name: "conv6_2_mbox_loc_flat"
  type: "Flatten"
  bottom: "conv6_2_mbox_loc_perm"
  top: "conv6_2_mbox_loc_flat"
  flatten_param {
    axis: 1
  }
}
layer {
  name: "conv6_2_mbox_conf"
  type: "Convolution"
  bottom: "conv6_2"
  top: "conv6_2_mbox_conf"
  param {
    lr_mult: 1
    decay_mult: 1
  }
  param {
    lr_mult: 2
    decay_mult: 0
  }
  convolution_param {
    num_output: 12
    pad: 1
    kernel_size: 3
    stride: 1
    weight_filler {
      type: "xavier"
    }
    bias_filler {
      type: "constant"
      value: 0
    }
  }
}
layer {
  name: "conv6_2_mbox_conf_perm"
  type: "Permute"
  bottom: "conv6_2_mbox_conf"
  top: "conv6_2_mbox_conf_perm"
  permute_param {
    order: 0
    order: 2
    order: 3
    order: 1
  }
}
layer {
  name: "conv6_2_mbox_conf_flat"
  type: "Flatten"
  bottom: "conv6_2_mbox_conf_perm"
  top: "conv6_2_mbox_conf_flat"
  flatten_param {
    axis: 1
  }
}
layer {
  name: "conv6_2_mbox_priorbox"
  type: "PriorBox"
  bottom: "conv6_2"
  bottom: "data"
  top: "conv6_2_mbox_priorbox"
  prior_box_param {
    min_size: 99
    max_size: 153
    aspect_ratio: 2
    aspect_ratio: 3
    flip: true
    clip: false
    variance: 0.1
    variance: 0.1
    variance: 0.2
    variance: 0.2
    step: 32
    offset: 0.5
  }
}
layer {
  name: "conv7_2_mbox_loc"
  type: "Convolution"
  bottom: "conv7_2"
  top: "conv7_2_mbox_loc"
  param {
    lr_mult: 1
    decay_mult: 1
  }
  param {
    lr_mult: 2
    decay_mult: 0
  }
  convolution_param {
    num_output: 24
    pad: 1
    kernel_size: 3
    stride: 1
    weight_filler {
      type: "xavier"
    }
    bias_filler {
      type: "constant"
      value: 0
    }
  }
}
layer {
  name: "conv7_2_mbox_loc_perm"
  type: "Permute"
  bottom: "conv7_2_mbox_loc"
  top: "conv7_2_mbox_loc_perm"
  permute_param {
    order: 0
    order: 2
    order: 3
    order: 1
  }
}
layer {
  name: "conv7_2_mbox_loc_flat"
  type: "Flatten"
  bottom: "conv7_2_mbox_loc_perm"
  top: "conv7_2_mbox_loc_flat"
  flatten_param {
    axis: 1
  }
}
layer {
  name: "conv7_2_mbox_conf"
  type: "Convolution"
  bottom: "conv7_2"
  top: "conv7_2_mbox_conf"
  param {
    lr_mult: 1
    decay_mult: 1
  }
  param {
    lr_mult: 2
    decay_mult: 0
  }
  convolution_param {
    num_output: 12
    pad: 1
    kernel_size: 3
    stride: 1
    weight_filler {
      type: "xavier"
    }
    bias_filler {
      type: "constant"
      value: 0
    }
  }
}
layer {
  name: "conv7_2_mbox_conf_perm"
  type: "Permute"
  bottom: "conv7_2_mbox_conf"
  top: "conv7_2_mbox_conf_perm"
  permute_param {
    order: 0
    order: 2
    order: 3
    order: 1
  }
}
layer {
  name: "conv7_2_mbox_conf_flat"
  type: "Flatten"
  bottom: "conv7_2_mbox_conf_perm"
  top: "conv7_2_mbox_conf_flat"
  flatten_param {
    axis: 1
  }
}
layer {
  name: "conv7_2_mbox_priorbox"
  type: "PriorBox"
  bottom: "conv7_2"
  bottom: "data"
  top: "conv7_2_mbox_priorbox"
  prior_box_param {
    min_size: 153
    max_size: 207
    aspect_ratio: 2
    aspect_ratio: 3
    flip: true
    clip: false
    variance: 0.1
    variance: 0.1
    variance: 0.2
    variance: 0.2
    step: 64
    offset: 0.5
  }
}
layer {
  name: "conv8_2_mbox_loc"
  type: "Convolution"
  bottom: "conv8_2"
  top: "conv8_2_mbox_loc"
  param {
    lr_mult: 1
    decay_mult: 1
  }
  param {
    lr_mult: 2
    decay_mult: 0
  }
  convolution_param {
    num_output: 16
    pad: 1
    kernel_size: 3
    stride: 1
    weight_filler {
      type: "xavier"
    }
    bias_filler {
      type: "constant"
      value: 0
    }
  }
}
layer {
  name: "conv8_2_mbox_loc_perm"
  type: "Permute"
  bottom: "conv8_2_mbox_loc"
  top: "conv8_2_mbox_loc_perm"
  permute_param {
    order: 0
    order: 2
    order: 3
    order: 1
  }
}
layer {
  name: "conv8_2_mbox_loc_flat"
  type: "Flatten"
  bottom: "conv8_2_mbox_loc_perm"
  top: "conv8_2_mbox_loc_flat"
  flatten_param {
    axis: 1
  }
}
layer {
  name: "conv8_2_mbox_conf"
  type: "Convolution"
  bottom: "conv8_2"
  top: "conv8_2_mbox_conf"
  param {
    lr_mult: 1
    decay_mult: 1
  }
  param {
    lr_mult: 2
    decay_mult: 0
  }
  convolution_param {
    num_output: 8
    pad: 1
    kernel_size: 3
    stride: 1
    weight_filler {
      type: "xavier"
    }
    bias_filler {
      type: "constant"
      value: 0
    }
  }
}
layer {
  name: "conv8_2_mbox_conf_perm"
  type: "Permute"
  bottom: "conv8_2_mbox_conf"
  top: "conv8_2_mbox_conf_perm"
  permute_param {
    order: 0
    order: 2
    order: 3
    order: 1
  }
}
layer {
  name: "conv8_2_mbox_conf_flat"
  type: "Flatten"
  bottom: "conv8_2_mbox_conf_perm"
  top: "conv8_2_mbox_conf_flat"
  flatten_param {
    axis: 1
  }
}
layer {
  name: "conv8_2_mbox_priorbox"
  type: "PriorBox"
  bottom: "conv8_2"
  bottom: "data"
  top: "conv8_2_mbox_priorbox"
  prior_box_param {
    min_size: 207
    max_size: 261
    aspect_ratio: 2
    flip: true
    clip: false
    variance: 0.1
    variance: 0.1
    variance: 0.2
    variance: 0.2
    step: 100
    offset: 0.5
  }
}
layer {
  name: "conv9_2_mbox_loc"
  type: "Convolution"
  bottom: "conv9_2"
  top: "conv9_2_mbox_loc"
  param {
    lr_mult: 1
    decay_mult: 1
  }
  param {
    lr_mult: 2
    decay_mult: 0
  }
  convolution_param {
    num_output: 16
    pad: 1
    kernel_size: 3
    stride: 1
    weight_filler {
      type: "xavier"
    }
    bias_filler {
      type: "constant"
      value: 0
    }
  }
}
layer {
  name: "conv9_2_mbox_loc_perm"
  type: "Permute"
  bottom: "conv9_2_mbox_loc"
  top: "conv9_2_mbox_loc_perm"
  permute_param {
    order: 0
    order: 2
    order: 3
    order: 1
  }
}
layer {
  name: "conv9_2_mbox_loc_flat"
  type: "Flatten"
  bottom: "conv9_2_mbox_loc_perm"
  top: "conv9_2_mbox_loc_flat"
  flatten_param {
    axis: 1
  }
}
layer {
  name: "conv9_2_mbox_conf"
  type: "Convolution"
  bottom: "conv9_2"
  top: "conv9_2_mbox_conf"
  param {
    lr_mult: 1
    decay_mult: 1
  }
  param {
    lr_mult: 2
    decay_mult: 0
  }
  convolution_param {
    num_output: 8
    pad: 1
    kernel_size: 3
    stride: 1
    weight_filler {
      type: "xavier"
    }
    bias_filler {
      type: "constant"
      value: 0
    }
  }
}
layer {
  name: "conv9_2_mbox_conf_perm"
  type: "Permute"
  bottom: "conv9_2_mbox_conf"
  top: "conv9_2_mbox_conf_perm"
  permute_param {
    order: 0
    order: 2
    order: 3
    order: 1
  }
}
layer {
  name: "conv9_2_mbox_conf_flat"
  type: "Flatten"
  bottom: "conv9_2_mbox_conf_perm"
  top: "conv9_2_mbox_conf_flat"
  flatten_param {
    axis: 1
  }
}
layer {
  name: "conv9_2_mbox_priorbox"
  type: "PriorBox"
  bottom: "conv9_2"
  bottom: "data"
  top: "conv9_2_mbox_priorbox"
  prior_box_param {
    min_size: 261
    max_size: 315
    aspect_ratio: 2
    flip: true
    clip: false
    variance: 0.1
    variance: 0.1
    variance: 0.2
    variance: 0.2
    step: 300
    offset: 0.5
  }
}
layer {
  name: "mbox_loc"
  type: "Concat"
  bottom: "conv4_3_norm_mbox_loc_flat"
  bottom: "fc7_mbox_loc_flat"
  bottom: "conv6_2_mbox_loc_flat"
  bottom: "conv7_2_mbox_loc_flat"
  bottom: "conv8_2_mbox_loc_flat"
  bottom: "conv9_2_mbox_loc_flat"
  top: "mbox_loc"
  concat_param {
    axis: 1
  }
}
layer {
  name: "mbox_conf"
  type: "Concat"
  bottom: "conv4_3_norm_mbox_conf_flat"
  bottom: "fc7_mbox_conf_flat"
  bottom: "conv6_2_mbox_conf_flat"
  bottom: "conv7_2_mbox_conf_flat"
  bottom: "conv8_2_mbox_conf_flat"
  bottom: "conv9_2_mbox_conf_flat"
  top: "mbox_conf"
  concat_param {
    axis: 1
  }
}
layer {
  name: "mbox_priorbox"
  type: "Concat"
  bottom: "conv4_3_norm_mbox_priorbox"
  bottom: "fc7_mbox_priorbox"
  bottom: "conv6_2_mbox_priorbox"
  bottom: "conv7_2_mbox_priorbox"
  bottom: "conv8_2_mbox_priorbox"
  bottom: "conv9_2_mbox_priorbox"
  top: "mbox_priorbox"
  concat_param {
    axis: 2
  }
}
layer {
  name: "mbox_conf_reshape"
  type: "Reshape"
  bottom: "mbox_conf"
  top: "mbox_conf_reshape"
  reshape_param {
    shape {
      dim: 0
      dim: -1
      dim: 2
    }
  }
}
layer {
  name: "mbox_conf_softmax"
  type: "Softmax"
  bottom: "mbox_conf_reshape"
  top: "mbox_conf_softmax"
  softmax_param {
    axis: 2
  }
}
layer {
  name: "mbox_conf_flatten"
  type: "Flatten"
  bottom: "mbox_conf_softmax"
  top: "mbox_conf_flatten"
  flatten_param {
    axis: 1
  }
}
layer {
  name: "detection_out"
  type: "DetectionOutput"
  bottom: "mbox_loc"
  bottom: "mbox_conf_flatten"
  bottom: "mbox_priorbox"
  top: "detection_out"
  include {
    phase: TEST
  }
  detection_output_param {
    num_classes: 2
    share_location: true
    background_label_id: 0
    nms_param {
      nms_threshold: 0.45
      top_k: 400
    }
    save_output_param {
      output_directory: "/media/DT_Moyan/PG/caffe-ssd/data/VOCdevkit/results/VOC2007/SSD_300x300/Main"
      output_name_prefix: "comp4_det_test_"
      output_format: "VOC"
      label_map_file: "data/VOC2007/labelmap_voc.prototxt"
      name_size_file: "data/VOC2007/test_name_size.txt"
      num_test_image: 636
    }
    code_type: CENTER_SIZE
    keep_top_k: 200
    confidence_threshold: 0.01
  }
}
layer {
  name: "detection_eval"
  type: "DetectionEvaluate"
  bottom: "detection_out"
  bottom: "label"
  top: "detection_eval"
  include {
    phase: TEST
  }
  detection_evaluate_param {
    num_classes: 2
    background_label_id: 0
    overlap_threshold: 0.5
    evaluate_difficult_gt: false
    name_size_file: "data/VOC2007/test_name_size.txt"
  }
}
I0705 12:46:31.681167  1385 layer_factory.hpp:77] Creating layer data
I0705 12:46:31.681234  1385 net.cpp:100] Creating Layer data
I0705 12:46:31.681251  1385 net.cpp:408] data -> data
I0705 12:46:31.681260  1385 net.cpp:408] data -> label
I0705 12:46:31.681802  1404 db_lmdb.cpp:35] Opened lmdb examples/VOC2007/VOC2007_test_lmdb
I0705 12:46:31.696487  1385 annotated_data_layer.cpp:62] output data size: 8,3,300,300
I0705 12:46:31.714751  1385 net.cpp:150] Setting up data
I0705 12:46:31.714968  1385 net.cpp:157] Top shape: 8 3 300 300 (2160000)
I0705 12:46:31.715044  1385 net.cpp:157] Top shape: 1 1 65 8 (520)
I0705 12:46:31.715107  1385 net.cpp:165] Memory required for data: 8642080
I0705 12:46:31.715175  1385 layer_factory.hpp:77] Creating layer data_data_0_split
I0705 12:46:31.715251  1385 net.cpp:100] Creating Layer data_data_0_split
I0705 12:46:31.715315  1385 net.cpp:434] data_data_0_split <- data
I0705 12:46:31.715394  1385 net.cpp:408] data_data_0_split -> data_data_0_split_0
I0705 12:46:31.715474  1385 net.cpp:408] data_data_0_split -> data_data_0_split_1
I0705 12:46:31.715545  1385 net.cpp:408] data_data_0_split -> data_data_0_split_2
I0705 12:46:31.715616  1385 net.cpp:408] data_data_0_split -> data_data_0_split_3
I0705 12:46:31.715687  1385 net.cpp:408] data_data_0_split -> data_data_0_split_4
I0705 12:46:31.715755  1385 net.cpp:408] data_data_0_split -> data_data_0_split_5
I0705 12:46:31.715822  1385 net.cpp:408] data_data_0_split -> data_data_0_split_6
I0705 12:46:31.716065  1385 net.cpp:150] Setting up data_data_0_split
I0705 12:46:31.716131  1385 net.cpp:157] Top shape: 8 3 300 300 (2160000)
I0705 12:46:31.716198  1385 net.cpp:157] Top shape: 8 3 300 300 (2160000)
I0705 12:46:31.716267  1385 net.cpp:157] Top shape: 8 3 300 300 (2160000)
I0705 12:46:31.716336  1385 net.cpp:157] Top shape: 8 3 300 300 (2160000)
I0705 12:46:31.716408  1385 net.cpp:157] Top shape: 8 3 300 300 (2160000)
I0705 12:46:31.716480  1385 net.cpp:157] Top shape: 8 3 300 300 (2160000)
I0705 12:46:31.716550  1385 net.cpp:157] Top shape: 8 3 300 300 (2160000)
I0705 12:46:31.716616  1385 net.cpp:165] Memory required for data: 69122080
I0705 12:46:31.716723  1385 layer_factory.hpp:77] Creating layer conv1_1
I0705 12:46:31.716807  1385 net.cpp:100] Creating Layer conv1_1
I0705 12:46:31.716874  1385 net.cpp:434] conv1_1 <- data_data_0_split_0
I0705 12:46:31.716941  1385 net.cpp:408] conv1_1 -> conv1_1
I0705 12:46:31.718668  1385 net.cpp:150] Setting up conv1_1
I0705 12:46:31.718691  1385 net.cpp:157] Top shape: 8 64 300 300 (46080000)
I0705 12:46:31.718695  1385 net.cpp:165] Memory required for data: 253442080
I0705 12:46:31.718710  1385 layer_factory.hpp:77] Creating layer relu1_1
I0705 12:46:31.718724  1385 net.cpp:100] Creating Layer relu1_1
I0705 12:46:31.718730  1385 net.cpp:434] relu1_1 <- conv1_1
I0705 12:46:31.718736  1385 net.cpp:395] relu1_1 -> conv1_1 (in-place)
I0705 12:46:31.718897  1385 net.cpp:150] Setting up relu1_1
I0705 12:46:31.718906  1385 net.cpp:157] Top shape: 8 64 300 300 (46080000)
I0705 12:46:31.718909  1385 net.cpp:165] Memory required for data: 437762080
I0705 12:46:31.718914  1385 layer_factory.hpp:77] Creating layer conv1_2
I0705 12:46:31.718927  1385 net.cpp:100] Creating Layer conv1_2
I0705 12:46:31.718932  1385 net.cpp:434] conv1_2 <- conv1_1
I0705 12:46:31.718940  1385 net.cpp:408] conv1_2 -> conv1_2
I0705 12:46:31.721576  1385 net.cpp:150] Setting up conv1_2
I0705 12:46:31.721652  1385 net.cpp:157] Top shape: 8 64 300 300 (46080000)
I0705 12:46:31.721666  1385 net.cpp:165] Memory required for data: 622082080
I0705 12:46:31.721690  1385 layer_factory.hpp:77] Creating layer relu1_2
I0705 12:46:31.721709  1385 net.cpp:100] Creating Layer relu1_2
I0705 12:46:31.721721  1385 net.cpp:434] relu1_2 <- conv1_2
I0705 12:46:31.721740  1385 net.cpp:395] relu1_2 -> conv1_2 (in-place)
I0705 12:46:31.721941  1385 net.cpp:150] Setting up relu1_2
I0705 12:46:31.721962  1385 net.cpp:157] Top shape: 8 64 300 300 (46080000)
I0705 12:46:31.721974  1385 net.cpp:165] Memory required for data: 806402080
I0705 12:46:31.721985  1385 layer_factory.hpp:77] Creating layer pool1
I0705 12:46:31.722002  1385 net.cpp:100] Creating Layer pool1
I0705 12:46:31.722012  1385 net.cpp:434] pool1 <- conv1_2
I0705 12:46:31.722031  1385 net.cpp:408] pool1 -> pool1
I0705 12:46:31.722116  1385 net.cpp:150] Setting up pool1
I0705 12:46:31.722137  1385 net.cpp:157] Top shape: 8 64 150 150 (11520000)
I0705 12:46:31.722152  1385 net.cpp:165] Memory required for data: 852482080
I0705 12:46:31.722169  1385 layer_factory.hpp:77] Creating layer conv2_1
I0705 12:46:31.722194  1385 net.cpp:100] Creating Layer conv2_1
I0705 12:46:31.722210  1385 net.cpp:434] conv2_1 <- pool1
I0705 12:46:31.722229  1385 net.cpp:408] conv2_1 -> conv2_1
I0705 12:46:31.724249  1385 net.cpp:150] Setting up conv2_1
I0705 12:46:31.724323  1385 net.cpp:157] Top shape: 8 128 150 150 (23040000)
I0705 12:46:31.724342  1385 net.cpp:165] Memory required for data: 944642080
I0705 12:46:31.724373  1385 layer_factory.hpp:77] Creating layer relu2_1
I0705 12:46:31.724400  1385 net.cpp:100] Creating Layer relu2_1
I0705 12:46:31.724418  1385 net.cpp:434] relu2_1 <- conv2_1
I0705 12:46:31.724436  1385 net.cpp:395] relu2_1 -> conv2_1 (in-place)
I0705 12:46:31.724622  1385 net.cpp:150] Setting up relu2_1
I0705 12:46:31.724647  1385 net.cpp:157] Top shape: 8 128 150 150 (23040000)
I0705 12:46:31.724663  1385 net.cpp:165] Memory required for data: 1036802080
I0705 12:46:31.724689  1385 layer_factory.hpp:77] Creating layer conv2_2
I0705 12:46:31.724717  1385 net.cpp:100] Creating Layer conv2_2
I0705 12:46:31.724735  1385 net.cpp:434] conv2_2 <- conv2_1
I0705 12:46:31.724753  1385 net.cpp:408] conv2_2 -> conv2_2
I0705 12:46:31.727654  1385 net.cpp:150] Setting up conv2_2
I0705 12:46:31.727737  1385 net.cpp:157] Top shape: 8 128 150 150 (23040000)
I0705 12:46:31.727759  1385 net.cpp:165] Memory required for data: 1128962080
I0705 12:46:31.727788  1385 layer_factory.hpp:77] Creating layer relu2_2
I0705 12:46:31.727813  1385 net.cpp:100] Creating Layer relu2_2
I0705 12:46:31.727831  1385 net.cpp:434] relu2_2 <- conv2_2
I0705 12:46:31.727854  1385 net.cpp:395] relu2_2 -> conv2_2 (in-place)
I0705 12:46:31.728091  1385 net.cpp:150] Setting up relu2_2
I0705 12:46:31.728137  1385 net.cpp:157] Top shape: 8 128 150 150 (23040000)
I0705 12:46:31.728157  1385 net.cpp:165] Memory required for data: 1221122080
I0705 12:46:31.728179  1385 layer_factory.hpp:77] Creating layer pool2
I0705 12:46:31.728202  1385 net.cpp:100] Creating Layer pool2
I0705 12:46:31.728219  1385 net.cpp:434] pool2 <- conv2_2
I0705 12:46:31.728236  1385 net.cpp:408] pool2 -> pool2
I0705 12:46:31.728323  1385 net.cpp:150] Setting up pool2
I0705 12:46:31.728346  1385 net.cpp:157] Top shape: 8 128 75 75 (5760000)
I0705 12:46:31.728364  1385 net.cpp:165] Memory required for data: 1244162080
I0705 12:46:31.728379  1385 layer_factory.hpp:77] Creating layer conv3_1
I0705 12:46:31.728404  1385 net.cpp:100] Creating Layer conv3_1
I0705 12:46:31.728422  1385 net.cpp:434] conv3_1 <- pool2
I0705 12:46:31.728443  1385 net.cpp:408] conv3_1 -> conv3_1
I0705 12:46:31.732971  1385 net.cpp:150] Setting up conv3_1
I0705 12:46:31.733005  1385 net.cpp:157] Top shape: 8 256 75 75 (11520000)
I0705 12:46:31.733008  1385 net.cpp:165] Memory required for data: 1290242080
I0705 12:46:31.733031  1385 layer_factory.hpp:77] Creating layer relu3_1
I0705 12:46:31.733047  1385 net.cpp:100] Creating Layer relu3_1
I0705 12:46:31.733052  1385 net.cpp:434] relu3_1 <- conv3_1
I0705 12:46:31.733062  1385 net.cpp:395] relu3_1 -> conv3_1 (in-place)
I0705 12:46:31.733566  1385 net.cpp:150] Setting up relu3_1
I0705 12:46:31.733577  1385 net.cpp:157] Top shape: 8 256 75 75 (11520000)
I0705 12:46:31.733579  1385 net.cpp:165] Memory required for data: 1336322080
I0705 12:46:31.733583  1385 layer_factory.hpp:77] Creating layer conv3_2
I0705 12:46:31.733598  1385 net.cpp:100] Creating Layer conv3_2
I0705 12:46:31.733604  1385 net.cpp:434] conv3_2 <- conv3_1
I0705 12:46:31.733613  1385 net.cpp:408] conv3_2 -> conv3_2
I0705 12:46:31.738505  1385 net.cpp:150] Setting up conv3_2
I0705 12:46:31.738540  1385 net.cpp:157] Top shape: 8 256 75 75 (11520000)
I0705 12:46:31.738544  1385 net.cpp:165] Memory required for data: 1382402080
I0705 12:46:31.738561  1385 layer_factory.hpp:77] Creating layer relu3_2
I0705 12:46:31.738584  1385 net.cpp:100] Creating Layer relu3_2
I0705 12:46:31.738591  1385 net.cpp:434] relu3_2 <- conv3_2
I0705 12:46:31.738603  1385 net.cpp:395] relu3_2 -> conv3_2 (in-place)
I0705 12:46:31.738804  1385 net.cpp:150] Setting up relu3_2
I0705 12:46:31.738814  1385 net.cpp:157] Top shape: 8 256 75 75 (11520000)
I0705 12:46:31.738819  1385 net.cpp:165] Memory required for data: 1428482080
I0705 12:46:31.738823  1385 layer_factory.hpp:77] Creating layer conv3_3
I0705 12:46:31.738845  1385 net.cpp:100] Creating Layer conv3_3
I0705 12:46:31.738849  1385 net.cpp:434] conv3_3 <- conv3_2
I0705 12:46:31.738857  1385 net.cpp:408] conv3_3 -> conv3_3
I0705 12:46:31.744597  1385 net.cpp:150] Setting up conv3_3
I0705 12:46:31.744632  1385 net.cpp:157] Top shape: 8 256 75 75 (11520000)
I0705 12:46:31.744637  1385 net.cpp:165] Memory required for data: 1474562080
I0705 12:46:31.744650  1385 layer_factory.hpp:77] Creating layer relu3_3
I0705 12:46:31.744669  1385 net.cpp:100] Creating Layer relu3_3
I0705 12:46:31.744675  1385 net.cpp:434] relu3_3 <- conv3_3
I0705 12:46:31.744712  1385 net.cpp:395] relu3_3 -> conv3_3 (in-place)
I0705 12:46:31.744918  1385 net.cpp:150] Setting up relu3_3
I0705 12:46:31.744925  1385 net.cpp:157] Top shape: 8 256 75 75 (11520000)
I0705 12:46:31.744930  1385 net.cpp:165] Memory required for data: 1520642080
I0705 12:46:31.744933  1385 layer_factory.hpp:77] Creating layer pool3
I0705 12:46:31.744941  1385 net.cpp:100] Creating Layer pool3
I0705 12:46:31.744946  1385 net.cpp:434] pool3 <- conv3_3
I0705 12:46:31.744952  1385 net.cpp:408] pool3 -> pool3
I0705 12:46:31.745015  1385 net.cpp:150] Setting up pool3
I0705 12:46:31.745021  1385 net.cpp:157] Top shape: 8 256 38 38 (2957312)
I0705 12:46:31.745024  1385 net.cpp:165] Memory required for data: 1532471328
I0705 12:46:31.745028  1385 layer_factory.hpp:77] Creating layer conv4_1
I0705 12:46:31.745043  1385 net.cpp:100] Creating Layer conv4_1
I0705 12:46:31.745046  1385 net.cpp:434] conv4_1 <- pool3
I0705 12:46:31.745076  1385 net.cpp:408] conv4_1 -> conv4_1
I0705 12:46:31.754878  1385 net.cpp:150] Setting up conv4_1
I0705 12:46:31.754914  1385 net.cpp:157] Top shape: 8 512 38 38 (5914624)
I0705 12:46:31.754918  1385 net.cpp:165] Memory required for data: 1556129824
I0705 12:46:31.754931  1385 layer_factory.hpp:77] Creating layer relu4_1
I0705 12:46:31.754946  1385 net.cpp:100] Creating Layer relu4_1
I0705 12:46:31.754952  1385 net.cpp:434] relu4_1 <- conv4_1
I0705 12:46:31.754962  1385 net.cpp:395] relu4_1 -> conv4_1 (in-place)
I0705 12:46:31.755125  1385 net.cpp:150] Setting up relu4_1
I0705 12:46:31.755132  1385 net.cpp:157] Top shape: 8 512 38 38 (5914624)
I0705 12:46:31.755136  1385 net.cpp:165] Memory required for data: 1579788320
I0705 12:46:31.755139  1385 layer_factory.hpp:77] Creating layer conv4_2
I0705 12:46:31.755153  1385 net.cpp:100] Creating Layer conv4_2
I0705 12:46:31.755157  1385 net.cpp:434] conv4_2 <- conv4_1
I0705 12:46:31.755164  1385 net.cpp:408] conv4_2 -> conv4_2
I0705 12:46:31.771039  1385 net.cpp:150] Setting up conv4_2
I0705 12:46:31.771080  1385 net.cpp:157] Top shape: 8 512 38 38 (5914624)
I0705 12:46:31.771083  1385 net.cpp:165] Memory required for data: 1603446816
I0705 12:46:31.771111  1385 layer_factory.hpp:77] Creating layer relu4_2
I0705 12:46:31.771127  1385 net.cpp:100] Creating Layer relu4_2
I0705 12:46:31.771136  1385 net.cpp:434] relu4_2 <- conv4_2
I0705 12:46:31.771147  1385 net.cpp:395] relu4_2 -> conv4_2 (in-place)
I0705 12:46:31.771317  1385 net.cpp:150] Setting up relu4_2
I0705 12:46:31.771327  1385 net.cpp:157] Top shape: 8 512 38 38 (5914624)
I0705 12:46:31.771332  1385 net.cpp:165] Memory required for data: 1627105312
I0705 12:46:31.771334  1385 layer_factory.hpp:77] Creating layer conv4_3
I0705 12:46:31.771350  1385 net.cpp:100] Creating Layer conv4_3
I0705 12:46:31.771354  1385 net.cpp:434] conv4_3 <- conv4_2
I0705 12:46:31.771361  1385 net.cpp:408] conv4_3 -> conv4_3
I0705 12:46:31.792732  1385 net.cpp:150] Setting up conv4_3
I0705 12:46:31.792764  1385 net.cpp:157] Top shape: 8 512 38 38 (5914624)
I0705 12:46:31.792769  1385 net.cpp:165] Memory required for data: 1650763808
I0705 12:46:31.792783  1385 layer_factory.hpp:77] Creating layer relu4_3
I0705 12:46:31.792795  1385 net.cpp:100] Creating Layer relu4_3
I0705 12:46:31.792800  1385 net.cpp:434] relu4_3 <- conv4_3
I0705 12:46:31.792809  1385 net.cpp:395] relu4_3 -> conv4_3 (in-place)
I0705 12:46:31.792976  1385 net.cpp:150] Setting up relu4_3
I0705 12:46:31.792984  1385 net.cpp:157] Top shape: 8 512 38 38 (5914624)
I0705 12:46:31.792987  1385 net.cpp:165] Memory required for data: 1674422304
I0705 12:46:31.792991  1385 layer_factory.hpp:77] Creating layer conv4_3_relu4_3_0_split
I0705 12:46:31.792999  1385 net.cpp:100] Creating Layer conv4_3_relu4_3_0_split
I0705 12:46:31.793002  1385 net.cpp:434] conv4_3_relu4_3_0_split <- conv4_3
I0705 12:46:31.793009  1385 net.cpp:408] conv4_3_relu4_3_0_split -> conv4_3_relu4_3_0_split_0
I0705 12:46:31.793017  1385 net.cpp:408] conv4_3_relu4_3_0_split -> conv4_3_relu4_3_0_split_1
I0705 12:46:31.793071  1385 net.cpp:150] Setting up conv4_3_relu4_3_0_split
I0705 12:46:31.793077  1385 net.cpp:157] Top shape: 8 512 38 38 (5914624)
I0705 12:46:31.793082  1385 net.cpp:157] Top shape: 8 512 38 38 (5914624)
I0705 12:46:31.793085  1385 net.cpp:165] Memory required for data: 1721739296
I0705 12:46:31.793089  1385 layer_factory.hpp:77] Creating layer pool4
I0705 12:46:31.793097  1385 net.cpp:100] Creating Layer pool4
I0705 12:46:31.793099  1385 net.cpp:434] pool4 <- conv4_3_relu4_3_0_split_0
I0705 12:46:31.793107  1385 net.cpp:408] pool4 -> pool4
I0705 12:46:31.793143  1385 net.cpp:150] Setting up pool4
I0705 12:46:31.793148  1385 net.cpp:157] Top shape: 8 512 19 19 (1478656)
I0705 12:46:31.793151  1385 net.cpp:165] Memory required for data: 1727653920
I0705 12:46:31.793155  1385 layer_factory.hpp:77] Creating layer conv5_1
I0705 12:46:31.793167  1385 net.cpp:100] Creating Layer conv5_1
I0705 12:46:31.793171  1385 net.cpp:434] conv5_1 <- pool4
I0705 12:46:31.793193  1385 net.cpp:408] conv5_1 -> conv5_1
I0705 12:46:31.806741  1385 net.cpp:150] Setting up conv5_1
I0705 12:46:31.806779  1385 net.cpp:157] Top shape: 8 512 19 19 (1478656)
I0705 12:46:31.806784  1385 net.cpp:165] Memory required for data: 1733568544
I0705 12:46:31.806797  1385 layer_factory.hpp:77] Creating layer relu5_1
I0705 12:46:31.806810  1385 net.cpp:100] Creating Layer relu5_1
I0705 12:46:31.806834  1385 net.cpp:434] relu5_1 <- conv5_1
I0705 12:46:31.806843  1385 net.cpp:395] relu5_1 -> conv5_1 (in-place)
I0705 12:46:31.807657  1385 net.cpp:150] Setting up relu5_1
I0705 12:46:31.807669  1385 net.cpp:157] Top shape: 8 512 19 19 (1478656)
I0705 12:46:31.807672  1385 net.cpp:165] Memory required for data: 1739483168
I0705 12:46:31.807677  1385 layer_factory.hpp:77] Creating layer conv5_2
I0705 12:46:31.807690  1385 net.cpp:100] Creating Layer conv5_2
I0705 12:46:31.807718  1385 net.cpp:434] conv5_2 <- conv5_1
I0705 12:46:31.807727  1385 net.cpp:408] conv5_2 -> conv5_2
I0705 12:46:31.824746  1385 net.cpp:150] Setting up conv5_2
I0705 12:46:31.824782  1385 net.cpp:157] Top shape: 8 512 19 19 (1478656)
I0705 12:46:31.824786  1385 net.cpp:165] Memory required for data: 1745397792
I0705 12:46:31.824800  1385 layer_factory.hpp:77] Creating layer relu5_2
I0705 12:46:31.824815  1385 net.cpp:100] Creating Layer relu5_2
I0705 12:46:31.824820  1385 net.cpp:434] relu5_2 <- conv5_2
I0705 12:46:31.824829  1385 net.cpp:395] relu5_2 -> conv5_2 (in-place)
I0705 12:46:31.825002  1385 net.cpp:150] Setting up relu5_2
I0705 12:46:31.825011  1385 net.cpp:157] Top shape: 8 512 19 19 (1478656)
I0705 12:46:31.825014  1385 net.cpp:165] Memory required for data: 1751312416
I0705 12:46:31.825019  1385 layer_factory.hpp:77] Creating layer conv5_3
I0705 12:46:31.825033  1385 net.cpp:100] Creating Layer conv5_3
I0705 12:46:31.825037  1385 net.cpp:434] conv5_3 <- conv5_2
I0705 12:46:31.825043  1385 net.cpp:408] conv5_3 -> conv5_3
I0705 12:46:31.841708  1385 net.cpp:150] Setting up conv5_3
I0705 12:46:31.841764  1385 net.cpp:157] Top shape: 8 512 19 19 (1478656)
I0705 12:46:31.841768  1385 net.cpp:165] Memory required for data: 1757227040
I0705 12:46:31.841784  1385 layer_factory.hpp:77] Creating layer relu5_3
I0705 12:46:31.841811  1385 net.cpp:100] Creating Layer relu5_3
I0705 12:46:31.841820  1385 net.cpp:434] relu5_3 <- conv5_3
I0705 12:46:31.841827  1385 net.cpp:395] relu5_3 -> conv5_3 (in-place)
I0705 12:46:31.842010  1385 net.cpp:150] Setting up relu5_3
I0705 12:46:31.842018  1385 net.cpp:157] Top shape: 8 512 19 19 (1478656)
I0705 12:46:31.842020  1385 net.cpp:165] Memory required for data: 1763141664
I0705 12:46:31.842023  1385 layer_factory.hpp:77] Creating layer pool5
I0705 12:46:31.842033  1385 net.cpp:100] Creating Layer pool5
I0705 12:46:31.842038  1385 net.cpp:434] pool5 <- conv5_3
I0705 12:46:31.842044  1385 net.cpp:408] pool5 -> pool5
I0705 12:46:31.842123  1385 net.cpp:150] Setting up pool5
I0705 12:46:31.842128  1385 net.cpp:157] Top shape: 8 512 19 19 (1478656)
I0705 12:46:31.842130  1385 net.cpp:165] Memory required for data: 1769056288
I0705 12:46:31.842133  1385 layer_factory.hpp:77] Creating layer fc6
I0705 12:46:31.842150  1385 net.cpp:100] Creating Layer fc6
I0705 12:46:31.842154  1385 net.cpp:434] fc6 <- pool5
I0705 12:46:31.842160  1385 net.cpp:408] fc6 -> fc6
I0705 12:46:31.875957  1385 net.cpp:150] Setting up fc6
I0705 12:46:31.875994  1385 net.cpp:157] Top shape: 8 1024 19 19 (2957312)
I0705 12:46:31.875996  1385 net.cpp:165] Memory required for data: 1780885536
I0705 12:46:31.876008  1385 layer_factory.hpp:77] Creating layer relu6
I0705 12:46:31.876019  1385 net.cpp:100] Creating Layer relu6
I0705 12:46:31.876025  1385 net.cpp:434] relu6 <- fc6
I0705 12:46:31.876034  1385 net.cpp:395] relu6 -> fc6 (in-place)
I0705 12:46:31.876284  1385 net.cpp:150] Setting up relu6
I0705 12:46:31.876292  1385 net.cpp:157] Top shape: 8 1024 19 19 (2957312)
I0705 12:46:31.876294  1385 net.cpp:165] Memory required for data: 1792714784
I0705 12:46:31.876297  1385 layer_factory.hpp:77] Creating layer fc7
I0705 12:46:31.876309  1385 net.cpp:100] Creating Layer fc7
I0705 12:46:31.876336  1385 net.cpp:434] fc7 <- fc6
I0705 12:46:31.876344  1385 net.cpp:408] fc7 -> fc7
I0705 12:46:31.885329  1385 net.cpp:150] Setting up fc7
I0705 12:46:31.885442  1385 net.cpp:157] Top shape: 8 1024 19 19 (2957312)
I0705 12:46:31.885465  1385 net.cpp:165] Memory required for data: 1804544032
I0705 12:46:31.885488  1385 layer_factory.hpp:77] Creating layer relu7
I0705 12:46:31.885500  1385 net.cpp:100] Creating Layer relu7
I0705 12:46:31.885524  1385 net.cpp:434] relu7 <- fc7
I0705 12:46:31.885535  1385 net.cpp:395] relu7 -> fc7 (in-place)
I0705 12:46:31.885762  1385 net.cpp:150] Setting up relu7
I0705 12:46:31.885771  1385 net.cpp:157] Top shape: 8 1024 19 19 (2957312)
I0705 12:46:31.885776  1385 net.cpp:165] Memory required for data: 1816373280
I0705 12:46:31.885779  1385 layer_factory.hpp:77] Creating layer fc7_relu7_0_split
I0705 12:46:31.885799  1385 net.cpp:100] Creating Layer fc7_relu7_0_split
I0705 12:46:31.885804  1385 net.cpp:434] fc7_relu7_0_split <- fc7
I0705 12:46:31.885812  1385 net.cpp:408] fc7_relu7_0_split -> fc7_relu7_0_split_0
I0705 12:46:31.885819  1385 net.cpp:408] fc7_relu7_0_split -> fc7_relu7_0_split_1
I0705 12:46:31.885834  1385 net.cpp:408] fc7_relu7_0_split -> fc7_relu7_0_split_2
I0705 12:46:31.885843  1385 net.cpp:408] fc7_relu7_0_split -> fc7_relu7_0_split_3
I0705 12:46:31.885939  1385 net.cpp:150] Setting up fc7_relu7_0_split
I0705 12:46:31.885946  1385 net.cpp:157] Top shape: 8 1024 19 19 (2957312)
I0705 12:46:31.885951  1385 net.cpp:157] Top shape: 8 1024 19 19 (2957312)
I0705 12:46:31.885968  1385 net.cpp:157] Top shape: 8 1024 19 19 (2957312)
I0705 12:46:31.885974  1385 net.cpp:157] Top shape: 8 1024 19 19 (2957312)
I0705 12:46:31.885977  1385 net.cpp:165] Memory required for data: 1863690272
I0705 12:46:31.885980  1385 layer_factory.hpp:77] Creating layer conv6_1
I0705 12:46:31.885994  1385 net.cpp:100] Creating Layer conv6_1
I0705 12:46:31.885999  1385 net.cpp:434] conv6_1 <- fc7_relu7_0_split_0
I0705 12:46:31.886006  1385 net.cpp:408] conv6_1 -> conv6_1
I0705 12:46:31.895846  1385 net.cpp:150] Setting up conv6_1
I0705 12:46:31.895973  1385 net.cpp:157] Top shape: 8 256 19 19 (739328)
I0705 12:46:31.896003  1385 net.cpp:165] Memory required for data: 1866647584
I0705 12:46:31.896034  1385 layer_factory.hpp:77] Creating layer conv6_1_relu
I0705 12:46:31.896060  1385 net.cpp:100] Creating Layer conv6_1_relu
I0705 12:46:31.896081  1385 net.cpp:434] conv6_1_relu <- conv6_1
I0705 12:46:31.896104  1385 net.cpp:395] conv6_1_relu -> conv6_1 (in-place)
I0705 12:46:31.897043  1385 net.cpp:150] Setting up conv6_1_relu
I0705 12:46:31.897097  1385 net.cpp:157] Top shape: 8 256 19 19 (739328)
I0705 12:46:31.897117  1385 net.cpp:165] Memory required for data: 1869604896
I0705 12:46:31.897140  1385 layer_factory.hpp:77] Creating layer conv6_2
I0705 12:46:31.897172  1385 net.cpp:100] Creating Layer conv6_2
I0705 12:46:31.897193  1385 net.cpp:434] conv6_2 <- conv6_1
I0705 12:46:31.897218  1385 net.cpp:408] conv6_2 -> conv6_2
I0705 12:46:31.908113  1385 net.cpp:150] Setting up conv6_2
I0705 12:46:31.908154  1385 net.cpp:157] Top shape: 8 512 10 10 (409600)
I0705 12:46:31.908159  1385 net.cpp:165] Memory required for data: 1871243296
I0705 12:46:31.908179  1385 layer_factory.hpp:77] Creating layer conv6_2_relu
I0705 12:46:31.908192  1385 net.cpp:100] Creating Layer conv6_2_relu
I0705 12:46:31.908223  1385 net.cpp:434] conv6_2_relu <- conv6_2
I0705 12:46:31.908231  1385 net.cpp:395] conv6_2_relu -> conv6_2 (in-place)
I0705 12:46:31.909127  1385 net.cpp:150] Setting up conv6_2_relu
I0705 12:46:31.909154  1385 net.cpp:157] Top shape: 8 512 10 10 (409600)
I0705 12:46:31.909158  1385 net.cpp:165] Memory required for data: 1872881696
I0705 12:46:31.909163  1385 layer_factory.hpp:77] Creating layer conv6_2_conv6_2_relu_0_split
I0705 12:46:31.909171  1385 net.cpp:100] Creating Layer conv6_2_conv6_2_relu_0_split
I0705 12:46:31.909176  1385 net.cpp:434] conv6_2_conv6_2_relu_0_split <- conv6_2
I0705 12:46:31.909183  1385 net.cpp:408] conv6_2_conv6_2_relu_0_split -> conv6_2_conv6_2_relu_0_split_0
I0705 12:46:31.909212  1385 net.cpp:408] conv6_2_conv6_2_relu_0_split -> conv6_2_conv6_2_relu_0_split_1
I0705 12:46:31.909219  1385 net.cpp:408] conv6_2_conv6_2_relu_0_split -> conv6_2_conv6_2_relu_0_split_2
I0705 12:46:31.909227  1385 net.cpp:408] conv6_2_conv6_2_relu_0_split -> conv6_2_conv6_2_relu_0_split_3
I0705 12:46:31.909324  1385 net.cpp:150] Setting up conv6_2_conv6_2_relu_0_split
I0705 12:46:31.909332  1385 net.cpp:157] Top shape: 8 512 10 10 (409600)
I0705 12:46:31.909335  1385 net.cpp:157] Top shape: 8 512 10 10 (409600)
I0705 12:46:31.909339  1385 net.cpp:157] Top shape: 8 512 10 10 (409600)
I0705 12:46:31.909343  1385 net.cpp:157] Top shape: 8 512 10 10 (409600)
I0705 12:46:31.909345  1385 net.cpp:165] Memory required for data: 1879435296
I0705 12:46:31.909349  1385 layer_factory.hpp:77] Creating layer conv7_1
I0705 12:46:31.909363  1385 net.cpp:100] Creating Layer conv7_1
I0705 12:46:31.909368  1385 net.cpp:434] conv7_1 <- conv6_2_conv6_2_relu_0_split_0
I0705 12:46:31.909373  1385 net.cpp:408] conv7_1 -> conv7_1
I0705 12:46:31.911288  1385 net.cpp:150] Setting up conv7_1
I0705 12:46:31.911309  1385 net.cpp:157] Top shape: 8 128 10 10 (102400)
I0705 12:46:31.911312  1385 net.cpp:165] Memory required for data: 1879844896
I0705 12:46:31.911324  1385 layer_factory.hpp:77] Creating layer conv7_1_relu
I0705 12:46:31.911334  1385 net.cpp:100] Creating Layer conv7_1_relu
I0705 12:46:31.911339  1385 net.cpp:434] conv7_1_relu <- conv7_1
I0705 12:46:31.911345  1385 net.cpp:395] conv7_1_relu -> conv7_1 (in-place)
I0705 12:46:31.911494  1385 net.cpp:150] Setting up conv7_1_relu
I0705 12:46:31.911500  1385 net.cpp:157] Top shape: 8 128 10 10 (102400)
I0705 12:46:31.911515  1385 net.cpp:165] Memory required for data: 1880254496
I0705 12:46:31.911518  1385 layer_factory.hpp:77] Creating layer conv7_2
I0705 12:46:31.911530  1385 net.cpp:100] Creating Layer conv7_2
I0705 12:46:31.911532  1385 net.cpp:434] conv7_2 <- conv7_1
I0705 12:46:31.911537  1385 net.cpp:408] conv7_2 -> conv7_2
I0705 12:46:31.914901  1385 net.cpp:150] Setting up conv7_2
I0705 12:46:31.914933  1385 net.cpp:157] Top shape: 8 256 5 5 (51200)
I0705 12:46:31.914937  1385 net.cpp:165] Memory required for data: 1880459296
I0705 12:46:31.914947  1385 layer_factory.hpp:77] Creating layer conv7_2_relu
I0705 12:46:31.914961  1385 net.cpp:100] Creating Layer conv7_2_relu
I0705 12:46:31.914968  1385 net.cpp:434] conv7_2_relu <- conv7_2
I0705 12:46:31.914974  1385 net.cpp:395] conv7_2_relu -> conv7_2 (in-place)
I0705 12:46:31.915120  1385 net.cpp:150] Setting up conv7_2_relu
I0705 12:46:31.915127  1385 net.cpp:157] Top shape: 8 256 5 5 (51200)
I0705 12:46:31.915129  1385 net.cpp:165] Memory required for data: 1880664096
I0705 12:46:31.915132  1385 layer_factory.hpp:77] Creating layer conv7_2_conv7_2_relu_0_split
I0705 12:46:31.915139  1385 net.cpp:100] Creating Layer conv7_2_conv7_2_relu_0_split
I0705 12:46:31.915143  1385 net.cpp:434] conv7_2_conv7_2_relu_0_split <- conv7_2
I0705 12:46:31.915148  1385 net.cpp:408] conv7_2_conv7_2_relu_0_split -> conv7_2_conv7_2_relu_0_split_0
I0705 12:46:31.915156  1385 net.cpp:408] conv7_2_conv7_2_relu_0_split -> conv7_2_conv7_2_relu_0_split_1
I0705 12:46:31.915163  1385 net.cpp:408] conv7_2_conv7_2_relu_0_split -> conv7_2_conv7_2_relu_0_split_2
I0705 12:46:31.915169  1385 net.cpp:408] conv7_2_conv7_2_relu_0_split -> conv7_2_conv7_2_relu_0_split_3
I0705 12:46:31.915240  1385 net.cpp:150] Setting up conv7_2_conv7_2_relu_0_split
I0705 12:46:31.915244  1385 net.cpp:157] Top shape: 8 256 5 5 (51200)
I0705 12:46:31.915247  1385 net.cpp:157] Top shape: 8 256 5 5 (51200)
I0705 12:46:31.915251  1385 net.cpp:157] Top shape: 8 256 5 5 (51200)
I0705 12:46:31.915256  1385 net.cpp:157] Top shape: 8 256 5 5 (51200)
I0705 12:46:31.915258  1385 net.cpp:165] Memory required for data: 1881483296
I0705 12:46:31.915261  1385 layer_factory.hpp:77] Creating layer conv8_1
I0705 12:46:31.915275  1385 net.cpp:100] Creating Layer conv8_1
I0705 12:46:31.915280  1385 net.cpp:434] conv8_1 <- conv7_2_conv7_2_relu_0_split_0
I0705 12:46:31.915311  1385 net.cpp:408] conv8_1 -> conv8_1
I0705 12:46:31.916584  1385 net.cpp:150] Setting up conv8_1
I0705 12:46:31.916600  1385 net.cpp:157] Top shape: 8 128 5 5 (25600)
I0705 12:46:31.916604  1385 net.cpp:165] Memory required for data: 1881585696
I0705 12:46:31.916611  1385 layer_factory.hpp:77] Creating layer conv8_1_relu
I0705 12:46:31.916620  1385 net.cpp:100] Creating Layer conv8_1_relu
I0705 12:46:31.916648  1385 net.cpp:434] conv8_1_relu <- conv8_1
I0705 12:46:31.916657  1385 net.cpp:395] conv8_1_relu -> conv8_1 (in-place)
I0705 12:46:31.916818  1385 net.cpp:150] Setting up conv8_1_relu
I0705 12:46:31.916826  1385 net.cpp:157] Top shape: 8 128 5 5 (25600)
I0705 12:46:31.916829  1385 net.cpp:165] Memory required for data: 1881688096
I0705 12:46:31.916834  1385 layer_factory.hpp:77] Creating layer conv8_2
I0705 12:46:31.916846  1385 net.cpp:100] Creating Layer conv8_2
I0705 12:46:31.916851  1385 net.cpp:434] conv8_2 <- conv8_1
I0705 12:46:31.916857  1385 net.cpp:408] conv8_2 -> conv8_2
I0705 12:46:31.921334  1385 net.cpp:150] Setting up conv8_2
I0705 12:46:31.921378  1385 net.cpp:157] Top shape: 8 256 3 3 (18432)
I0705 12:46:31.921380  1385 net.cpp:165] Memory required for data: 1881761824
I0705 12:46:31.921394  1385 layer_factory.hpp:77] Creating layer conv8_2_relu
I0705 12:46:31.921409  1385 net.cpp:100] Creating Layer conv8_2_relu
I0705 12:46:31.921417  1385 net.cpp:434] conv8_2_relu <- conv8_2
I0705 12:46:31.921424  1385 net.cpp:395] conv8_2_relu -> conv8_2 (in-place)
I0705 12:46:31.921584  1385 net.cpp:150] Setting up conv8_2_relu
I0705 12:46:31.921592  1385 net.cpp:157] Top shape: 8 256 3 3 (18432)
I0705 12:46:31.921608  1385 net.cpp:165] Memory required for data: 1881835552
I0705 12:46:31.921612  1385 layer_factory.hpp:77] Creating layer conv8_2_conv8_2_relu_0_split
I0705 12:46:31.921617  1385 net.cpp:100] Creating Layer conv8_2_conv8_2_relu_0_split
I0705 12:46:31.921620  1385 net.cpp:434] conv8_2_conv8_2_relu_0_split <- conv8_2
I0705 12:46:31.921625  1385 net.cpp:408] conv8_2_conv8_2_relu_0_split -> conv8_2_conv8_2_relu_0_split_0
I0705 12:46:31.921633  1385 net.cpp:408] conv8_2_conv8_2_relu_0_split -> conv8_2_conv8_2_relu_0_split_1
I0705 12:46:31.921638  1385 net.cpp:408] conv8_2_conv8_2_relu_0_split -> conv8_2_conv8_2_relu_0_split_2
I0705 12:46:31.921644  1385 net.cpp:408] conv8_2_conv8_2_relu_0_split -> conv8_2_conv8_2_relu_0_split_3
I0705 12:46:31.921730  1385 net.cpp:150] Setting up conv8_2_conv8_2_relu_0_split
I0705 12:46:31.921735  1385 net.cpp:157] Top shape: 8 256 3 3 (18432)
I0705 12:46:31.921751  1385 net.cpp:157] Top shape: 8 256 3 3 (18432)
I0705 12:46:31.921754  1385 net.cpp:157] Top shape: 8 256 3 3 (18432)
I0705 12:46:31.921756  1385 net.cpp:157] Top shape: 8 256 3 3 (18432)
I0705 12:46:31.921758  1385 net.cpp:165] Memory required for data: 1882130464
I0705 12:46:31.921762  1385 layer_factory.hpp:77] Creating layer conv9_1
I0705 12:46:31.921773  1385 net.cpp:100] Creating Layer conv9_1
I0705 12:46:31.921777  1385 net.cpp:434] conv9_1 <- conv8_2_conv8_2_relu_0_split_0
I0705 12:46:31.921782  1385 net.cpp:408] conv9_1 -> conv9_1
I0705 12:46:31.923056  1385 net.cpp:150] Setting up conv9_1
I0705 12:46:31.923087  1385 net.cpp:157] Top shape: 8 128 3 3 (9216)
I0705 12:46:31.923091  1385 net.cpp:165] Memory required for data: 1882167328
I0705 12:46:31.923097  1385 layer_factory.hpp:77] Creating layer conv9_1_relu
I0705 12:46:31.923105  1385 net.cpp:100] Creating Layer conv9_1_relu
I0705 12:46:31.923110  1385 net.cpp:434] conv9_1_relu <- conv9_1
I0705 12:46:31.923115  1385 net.cpp:395] conv9_1_relu -> conv9_1 (in-place)
I0705 12:46:31.923959  1385 net.cpp:150] Setting up conv9_1_relu
I0705 12:46:31.923988  1385 net.cpp:157] Top shape: 8 128 3 3 (9216)
I0705 12:46:31.923991  1385 net.cpp:165] Memory required for data: 1882204192
I0705 12:46:31.923996  1385 layer_factory.hpp:77] Creating layer conv9_2
I0705 12:46:31.924008  1385 net.cpp:100] Creating Layer conv9_2
I0705 12:46:31.924031  1385 net.cpp:434] conv9_2 <- conv9_1
I0705 12:46:31.924041  1385 net.cpp:408] conv9_2 -> conv9_2
I0705 12:46:31.927959  1385 net.cpp:150] Setting up conv9_2
I0705 12:46:31.928009  1385 net.cpp:157] Top shape: 8 256 1 1 (2048)
I0705 12:46:31.928014  1385 net.cpp:165] Memory required for data: 1882212384
I0705 12:46:31.928027  1385 layer_factory.hpp:77] Creating layer conv9_2_relu
I0705 12:46:31.928042  1385 net.cpp:100] Creating Layer conv9_2_relu
I0705 12:46:31.928050  1385 net.cpp:434] conv9_2_relu <- conv9_2
I0705 12:46:31.928059  1385 net.cpp:395] conv9_2_relu -> conv9_2 (in-place)
I0705 12:46:31.928798  1385 net.cpp:150] Setting up conv9_2_relu
I0705 12:46:31.928810  1385 net.cpp:157] Top shape: 8 256 1 1 (2048)
I0705 12:46:31.928812  1385 net.cpp:165] Memory required for data: 1882220576
I0705 12:46:31.928817  1385 layer_factory.hpp:77] Creating layer conv9_2_conv9_2_relu_0_split
I0705 12:46:31.928825  1385 net.cpp:100] Creating Layer conv9_2_conv9_2_relu_0_split
I0705 12:46:31.928834  1385 net.cpp:434] conv9_2_conv9_2_relu_0_split <- conv9_2
I0705 12:46:31.928840  1385 net.cpp:408] conv9_2_conv9_2_relu_0_split -> conv9_2_conv9_2_relu_0_split_0
I0705 12:46:31.928849  1385 net.cpp:408] conv9_2_conv9_2_relu_0_split -> conv9_2_conv9_2_relu_0_split_1
I0705 12:46:31.928856  1385 net.cpp:408] conv9_2_conv9_2_relu_0_split -> conv9_2_conv9_2_relu_0_split_2
I0705 12:46:31.928920  1385 net.cpp:150] Setting up conv9_2_conv9_2_relu_0_split
I0705 12:46:31.928925  1385 net.cpp:157] Top shape: 8 256 1 1 (2048)
I0705 12:46:31.928928  1385 net.cpp:157] Top shape: 8 256 1 1 (2048)
I0705 12:46:31.928933  1385 net.cpp:157] Top shape: 8 256 1 1 (2048)
I0705 12:46:31.928936  1385 net.cpp:165] Memory required for data: 1882245152
I0705 12:46:31.928939  1385 layer_factory.hpp:77] Creating layer conv4_3_norm
I0705 12:46:31.928947  1385 net.cpp:100] Creating Layer conv4_3_norm
I0705 12:46:31.928951  1385 net.cpp:434] conv4_3_norm <- conv4_3_relu4_3_0_split_1
I0705 12:46:31.928956  1385 net.cpp:408] conv4_3_norm -> conv4_3_norm
I0705 12:46:31.929106  1385 net.cpp:150] Setting up conv4_3_norm
I0705 12:46:31.929112  1385 net.cpp:157] Top shape: 8 512 38 38 (5914624)
I0705 12:46:31.929114  1385 net.cpp:165] Memory required for data: 1905903648
I0705 12:46:31.929121  1385 layer_factory.hpp:77] Creating layer conv4_3_norm_conv4_3_norm_0_split
I0705 12:46:31.929124  1385 net.cpp:100] Creating Layer conv4_3_norm_conv4_3_norm_0_split
I0705 12:46:31.929128  1385 net.cpp:434] conv4_3_norm_conv4_3_norm_0_split <- conv4_3_norm
I0705 12:46:31.929133  1385 net.cpp:408] conv4_3_norm_conv4_3_norm_0_split -> conv4_3_norm_conv4_3_norm_0_split_0
I0705 12:46:31.929141  1385 net.cpp:408] conv4_3_norm_conv4_3_norm_0_split -> conv4_3_norm_conv4_3_norm_0_split_1
I0705 12:46:31.929145  1385 net.cpp:408] conv4_3_norm_conv4_3_norm_0_split -> conv4_3_norm_conv4_3_norm_0_split_2
I0705 12:46:31.929188  1385 net.cpp:150] Setting up conv4_3_norm_conv4_3_norm_0_split
I0705 12:46:31.929193  1385 net.cpp:157] Top shape: 8 512 38 38 (5914624)
I0705 12:46:31.929198  1385 net.cpp:157] Top shape: 8 512 38 38 (5914624)
I0705 12:46:31.929201  1385 net.cpp:157] Top shape: 8 512 38 38 (5914624)
I0705 12:46:31.929203  1385 net.cpp:165] Memory required for data: 1976879136
I0705 12:46:31.929208  1385 layer_factory.hpp:77] Creating layer conv4_3_norm_mbox_loc
I0705 12:46:31.929217  1385 net.cpp:100] Creating Layer conv4_3_norm_mbox_loc
I0705 12:46:31.929221  1385 net.cpp:434] conv4_3_norm_mbox_loc <- conv4_3_norm_conv4_3_norm_0_split_0
I0705 12:46:31.929225  1385 net.cpp:408] conv4_3_norm_mbox_loc -> conv4_3_norm_mbox_loc
I0705 12:46:31.931212  1385 net.cpp:150] Setting up conv4_3_norm_mbox_loc
I0705 12:46:31.931239  1385 net.cpp:157] Top shape: 8 16 38 38 (184832)
I0705 12:46:31.931243  1385 net.cpp:165] Memory required for data: 1977618464
I0705 12:46:31.931255  1385 layer_factory.hpp:77] Creating layer conv4_3_norm_mbox_loc_perm
I0705 12:46:31.931269  1385 net.cpp:100] Creating Layer conv4_3_norm_mbox_loc_perm
I0705 12:46:31.931275  1385 net.cpp:434] conv4_3_norm_mbox_loc_perm <- conv4_3_norm_mbox_loc
I0705 12:46:31.931284  1385 net.cpp:408] conv4_3_norm_mbox_loc_perm -> conv4_3_norm_mbox_loc_perm
I0705 12:46:31.931424  1385 net.cpp:150] Setting up conv4_3_norm_mbox_loc_perm
I0705 12:46:31.931432  1385 net.cpp:157] Top shape: 8 38 38 16 (184832)
I0705 12:46:31.931435  1385 net.cpp:165] Memory required for data: 1978357792
I0705 12:46:31.931439  1385 layer_factory.hpp:77] Creating layer conv4_3_norm_mbox_loc_flat
I0705 12:46:31.931445  1385 net.cpp:100] Creating Layer conv4_3_norm_mbox_loc_flat
I0705 12:46:31.931450  1385 net.cpp:434] conv4_3_norm_mbox_loc_flat <- conv4_3_norm_mbox_loc_perm
I0705 12:46:31.931457  1385 net.cpp:408] conv4_3_norm_mbox_loc_flat -> conv4_3_norm_mbox_loc_flat
I0705 12:46:31.931491  1385 net.cpp:150] Setting up conv4_3_norm_mbox_loc_flat
I0705 12:46:31.931497  1385 net.cpp:157] Top shape: 8 23104 (184832)
I0705 12:46:31.931501  1385 net.cpp:165] Memory required for data: 1979097120
I0705 12:46:31.931504  1385 layer_factory.hpp:77] Creating layer conv4_3_norm_mbox_conf
I0705 12:46:31.931524  1385 net.cpp:100] Creating Layer conv4_3_norm_mbox_conf
I0705 12:46:31.931530  1385 net.cpp:434] conv4_3_norm_mbox_conf <- conv4_3_norm_conv4_3_norm_0_split_1
I0705 12:46:31.931537  1385 net.cpp:408] conv4_3_norm_mbox_conf -> conv4_3_norm_mbox_conf
I0705 12:46:31.933228  1385 net.cpp:150] Setting up conv4_3_norm_mbox_conf
I0705 12:46:31.933246  1385 net.cpp:157] Top shape: 8 8 38 38 (92416)
I0705 12:46:31.933249  1385 net.cpp:165] Memory required for data: 1979466784
I0705 12:46:31.933259  1385 layer_factory.hpp:77] Creating layer conv4_3_norm_mbox_conf_perm
I0705 12:46:31.933269  1385 net.cpp:100] Creating Layer conv4_3_norm_mbox_conf_perm
I0705 12:46:31.933274  1385 net.cpp:434] conv4_3_norm_mbox_conf_perm <- conv4_3_norm_mbox_conf
I0705 12:46:31.933280  1385 net.cpp:408] conv4_3_norm_mbox_conf_perm -> conv4_3_norm_mbox_conf_perm
I0705 12:46:31.933398  1385 net.cpp:150] Setting up conv4_3_norm_mbox_conf_perm
I0705 12:46:31.933404  1385 net.cpp:157] Top shape: 8 38 38 8 (92416)
I0705 12:46:31.933406  1385 net.cpp:165] Memory required for data: 1979836448
I0705 12:46:31.933409  1385 layer_factory.hpp:77] Creating layer conv4_3_norm_mbox_conf_flat
I0705 12:46:31.933416  1385 net.cpp:100] Creating Layer conv4_3_norm_mbox_conf_flat
I0705 12:46:31.933421  1385 net.cpp:434] conv4_3_norm_mbox_conf_flat <- conv4_3_norm_mbox_conf_perm
I0705 12:46:31.933426  1385 net.cpp:408] conv4_3_norm_mbox_conf_flat -> conv4_3_norm_mbox_conf_flat
I0705 12:46:31.933456  1385 net.cpp:150] Setting up conv4_3_norm_mbox_conf_flat
I0705 12:46:31.933462  1385 net.cpp:157] Top shape: 8 11552 (92416)
I0705 12:46:31.933465  1385 net.cpp:165] Memory required for data: 1980206112
I0705 12:46:31.933466  1385 layer_factory.hpp:77] Creating layer conv4_3_norm_mbox_priorbox
I0705 12:46:31.933472  1385 net.cpp:100] Creating Layer conv4_3_norm_mbox_priorbox
I0705 12:46:31.933476  1385 net.cpp:434] conv4_3_norm_mbox_priorbox <- conv4_3_norm_conv4_3_norm_0_split_2
I0705 12:46:31.933482  1385 net.cpp:434] conv4_3_norm_mbox_priorbox <- data_data_0_split_1
I0705 12:46:31.933490  1385 net.cpp:408] conv4_3_norm_mbox_priorbox -> conv4_3_norm_mbox_priorbox
I0705 12:46:31.933526  1385 net.cpp:150] Setting up conv4_3_norm_mbox_priorbox
I0705 12:46:31.933531  1385 net.cpp:157] Top shape: 1 2 23104 (46208)
I0705 12:46:31.933532  1385 net.cpp:165] Memory required for data: 1980390944
I0705 12:46:31.933535  1385 layer_factory.hpp:77] Creating layer fc7_mbox_loc
I0705 12:46:31.933545  1385 net.cpp:100] Creating Layer fc7_mbox_loc
I0705 12:46:31.933552  1385 net.cpp:434] fc7_mbox_loc <- fc7_relu7_0_split_1
I0705 12:46:31.933558  1385 net.cpp:408] fc7_mbox_loc -> fc7_mbox_loc
I0705 12:46:31.935606  1385 net.cpp:150] Setting up fc7_mbox_loc
I0705 12:46:31.935634  1385 net.cpp:157] Top shape: 8 24 19 19 (69312)
I0705 12:46:31.935637  1385 net.cpp:165] Memory required for data: 1980668192
I0705 12:46:31.935648  1385 layer_factory.hpp:77] Creating layer fc7_mbox_loc_perm
I0705 12:46:31.935662  1385 net.cpp:100] Creating Layer fc7_mbox_loc_perm
I0705 12:46:31.935668  1385 net.cpp:434] fc7_mbox_loc_perm <- fc7_mbox_loc
I0705 12:46:31.935680  1385 net.cpp:408] fc7_mbox_loc_perm -> fc7_mbox_loc_perm
I0705 12:46:31.935838  1385 net.cpp:150] Setting up fc7_mbox_loc_perm
I0705 12:46:31.935845  1385 net.cpp:157] Top shape: 8 19 19 24 (69312)
I0705 12:46:31.935847  1385 net.cpp:165] Memory required for data: 1980945440
I0705 12:46:31.935850  1385 layer_factory.hpp:77] Creating layer fc7_mbox_loc_flat
I0705 12:46:31.935858  1385 net.cpp:100] Creating Layer fc7_mbox_loc_flat
I0705 12:46:31.935863  1385 net.cpp:434] fc7_mbox_loc_flat <- fc7_mbox_loc_perm
I0705 12:46:31.935868  1385 net.cpp:408] fc7_mbox_loc_flat -> fc7_mbox_loc_flat
I0705 12:46:31.935897  1385 net.cpp:150] Setting up fc7_mbox_loc_flat
I0705 12:46:31.935902  1385 net.cpp:157] Top shape: 8 8664 (69312)
I0705 12:46:31.935904  1385 net.cpp:165] Memory required for data: 1981222688
I0705 12:46:31.935907  1385 layer_factory.hpp:77] Creating layer fc7_mbox_conf
I0705 12:46:31.935920  1385 net.cpp:100] Creating Layer fc7_mbox_conf
I0705 12:46:31.935925  1385 net.cpp:434] fc7_mbox_conf <- fc7_relu7_0_split_2
I0705 12:46:31.935931  1385 net.cpp:408] fc7_mbox_conf -> fc7_mbox_conf
I0705 12:46:31.937961  1385 net.cpp:150] Setting up fc7_mbox_conf
I0705 12:46:31.937988  1385 net.cpp:157] Top shape: 8 12 19 19 (34656)
I0705 12:46:31.937990  1385 net.cpp:165] Memory required for data: 1981361312
I0705 12:46:31.938000  1385 layer_factory.hpp:77] Creating layer fc7_mbox_conf_perm
I0705 12:46:31.938014  1385 net.cpp:100] Creating Layer fc7_mbox_conf_perm
I0705 12:46:31.938019  1385 net.cpp:434] fc7_mbox_conf_perm <- fc7_mbox_conf
I0705 12:46:31.938026  1385 net.cpp:408] fc7_mbox_conf_perm -> fc7_mbox_conf_perm
I0705 12:46:31.938180  1385 net.cpp:150] Setting up fc7_mbox_conf_perm
I0705 12:46:31.938187  1385 net.cpp:157] Top shape: 8 19 19 12 (34656)
I0705 12:46:31.938190  1385 net.cpp:165] Memory required for data: 1981499936
I0705 12:46:31.938194  1385 layer_factory.hpp:77] Creating layer fc7_mbox_conf_flat
I0705 12:46:31.938199  1385 net.cpp:100] Creating Layer fc7_mbox_conf_flat
I0705 12:46:31.938216  1385 net.cpp:434] fc7_mbox_conf_flat <- fc7_mbox_conf_perm
I0705 12:46:31.938225  1385 net.cpp:408] fc7_mbox_conf_flat -> fc7_mbox_conf_flat
I0705 12:46:31.938258  1385 net.cpp:150] Setting up fc7_mbox_conf_flat
I0705 12:46:31.938264  1385 net.cpp:157] Top shape: 8 4332 (34656)
I0705 12:46:31.938266  1385 net.cpp:165] Memory required for data: 1981638560
I0705 12:46:31.938269  1385 layer_factory.hpp:77] Creating layer fc7_mbox_priorbox
I0705 12:46:31.938278  1385 net.cpp:100] Creating Layer fc7_mbox_priorbox
I0705 12:46:31.938293  1385 net.cpp:434] fc7_mbox_priorbox <- fc7_relu7_0_split_3
I0705 12:46:31.938302  1385 net.cpp:434] fc7_mbox_priorbox <- data_data_0_split_2
I0705 12:46:31.938308  1385 net.cpp:408] fc7_mbox_priorbox -> fc7_mbox_priorbox
I0705 12:46:31.938349  1385 net.cpp:150] Setting up fc7_mbox_priorbox
I0705 12:46:31.938355  1385 net.cpp:157] Top shape: 1 2 8664 (17328)
I0705 12:46:31.938359  1385 net.cpp:165] Memory required for data: 1981707872
I0705 12:46:31.938362  1385 layer_factory.hpp:77] Creating layer conv6_2_mbox_loc
I0705 12:46:31.938374  1385 net.cpp:100] Creating Layer conv6_2_mbox_loc
I0705 12:46:31.938380  1385 net.cpp:434] conv6_2_mbox_loc <- conv6_2_conv6_2_relu_0_split_1
I0705 12:46:31.938386  1385 net.cpp:408] conv6_2_mbox_loc -> conv6_2_mbox_loc
I0705 12:46:31.942369  1385 net.cpp:150] Setting up conv6_2_mbox_loc
I0705 12:46:31.942405  1385 net.cpp:157] Top shape: 8 24 10 10 (19200)
I0705 12:46:31.942409  1385 net.cpp:165] Memory required for data: 1981784672
I0705 12:46:31.942422  1385 layer_factory.hpp:77] Creating layer conv6_2_mbox_loc_perm
I0705 12:46:31.942435  1385 net.cpp:100] Creating Layer conv6_2_mbox_loc_perm
I0705 12:46:31.942471  1385 net.cpp:434] conv6_2_mbox_loc_perm <- conv6_2_mbox_loc
I0705 12:46:31.942515  1385 net.cpp:408] conv6_2_mbox_loc_perm -> conv6_2_mbox_loc_perm
I0705 12:46:31.942688  1385 net.cpp:150] Setting up conv6_2_mbox_loc_perm
I0705 12:46:31.942708  1385 net.cpp:157] Top shape: 8 10 10 24 (19200)
I0705 12:46:31.942711  1385 net.cpp:165] Memory required for data: 1981861472
I0705 12:46:31.942733  1385 layer_factory.hpp:77] Creating layer conv6_2_mbox_loc_flat
I0705 12:46:31.942740  1385 net.cpp:100] Creating Layer conv6_2_mbox_loc_flat
I0705 12:46:31.942745  1385 net.cpp:434] conv6_2_mbox_loc_flat <- conv6_2_mbox_loc_perm
I0705 12:46:31.942754  1385 net.cpp:408] conv6_2_mbox_loc_flat -> conv6_2_mbox_loc_flat
I0705 12:46:31.942785  1385 net.cpp:150] Setting up conv6_2_mbox_loc_flat
I0705 12:46:31.942790  1385 net.cpp:157] Top shape: 8 2400 (19200)
I0705 12:46:31.942793  1385 net.cpp:165] Memory required for data: 1981938272
I0705 12:46:31.942796  1385 layer_factory.hpp:77] Creating layer conv6_2_mbox_conf
I0705 12:46:31.942811  1385 net.cpp:100] Creating Layer conv6_2_mbox_conf
I0705 12:46:31.942816  1385 net.cpp:434] conv6_2_mbox_conf <- conv6_2_conv6_2_relu_0_split_2
I0705 12:46:31.942822  1385 net.cpp:408] conv6_2_mbox_conf -> conv6_2_mbox_conf
I0705 12:46:31.945050  1385 net.cpp:150] Setting up conv6_2_mbox_conf
I0705 12:46:31.945091  1385 net.cpp:157] Top shape: 8 12 10 10 (9600)
I0705 12:46:31.945092  1385 net.cpp:165] Memory required for data: 1981976672
I0705 12:46:31.945103  1385 layer_factory.hpp:77] Creating layer conv6_2_mbox_conf_perm
I0705 12:46:31.945117  1385 net.cpp:100] Creating Layer conv6_2_mbox_conf_perm
I0705 12:46:31.945122  1385 net.cpp:434] conv6_2_mbox_conf_perm <- conv6_2_mbox_conf
I0705 12:46:31.945128  1385 net.cpp:408] conv6_2_mbox_conf_perm -> conv6_2_mbox_conf_perm
I0705 12:46:31.945263  1385 net.cpp:150] Setting up conv6_2_mbox_conf_perm
I0705 12:46:31.945269  1385 net.cpp:157] Top shape: 8 10 10 12 (9600)
I0705 12:46:31.945286  1385 net.cpp:165] Memory required for data: 1982015072
I0705 12:46:31.945288  1385 layer_factory.hpp:77] Creating layer conv6_2_mbox_conf_flat
I0705 12:46:31.945293  1385 net.cpp:100] Creating Layer conv6_2_mbox_conf_flat
I0705 12:46:31.945297  1385 net.cpp:434] conv6_2_mbox_conf_flat <- conv6_2_mbox_conf_perm
I0705 12:46:31.945302  1385 net.cpp:408] conv6_2_mbox_conf_flat -> conv6_2_mbox_conf_flat
I0705 12:46:31.945327  1385 net.cpp:150] Setting up conv6_2_mbox_conf_flat
I0705 12:46:31.945333  1385 net.cpp:157] Top shape: 8 1200 (9600)
I0705 12:46:31.945334  1385 net.cpp:165] Memory required for data: 1982053472
I0705 12:46:31.945336  1385 layer_factory.hpp:77] Creating layer conv6_2_mbox_priorbox
I0705 12:46:31.945344  1385 net.cpp:100] Creating Layer conv6_2_mbox_priorbox
I0705 12:46:31.945349  1385 net.cpp:434] conv6_2_mbox_priorbox <- conv6_2_conv6_2_relu_0_split_3
I0705 12:46:31.945355  1385 net.cpp:434] conv6_2_mbox_priorbox <- data_data_0_split_3
I0705 12:46:31.945363  1385 net.cpp:408] conv6_2_mbox_priorbox -> conv6_2_mbox_priorbox
I0705 12:46:31.945415  1385 net.cpp:150] Setting up conv6_2_mbox_priorbox
I0705 12:46:31.945420  1385 net.cpp:157] Top shape: 1 2 2400 (4800)
I0705 12:46:31.945436  1385 net.cpp:165] Memory required for data: 1982072672
I0705 12:46:31.945438  1385 layer_factory.hpp:77] Creating layer conv7_2_mbox_loc
I0705 12:46:31.945448  1385 net.cpp:100] Creating Layer conv7_2_mbox_loc
I0705 12:46:31.945454  1385 net.cpp:434] conv7_2_mbox_loc <- conv7_2_conv7_2_relu_0_split_1
I0705 12:46:31.945461  1385 net.cpp:408] conv7_2_mbox_loc -> conv7_2_mbox_loc
I0705 12:46:31.947178  1385 net.cpp:150] Setting up conv7_2_mbox_loc
I0705 12:46:31.947196  1385 net.cpp:157] Top shape: 8 24 5 5 (4800)
I0705 12:46:31.947199  1385 net.cpp:165] Memory required for data: 1982091872
I0705 12:46:31.947207  1385 layer_factory.hpp:77] Creating layer conv7_2_mbox_loc_perm
I0705 12:46:31.947218  1385 net.cpp:100] Creating Layer conv7_2_mbox_loc_perm
I0705 12:46:31.947224  1385 net.cpp:434] conv7_2_mbox_loc_perm <- conv7_2_mbox_loc
I0705 12:46:31.947232  1385 net.cpp:408] conv7_2_mbox_loc_perm -> conv7_2_mbox_loc_perm
I0705 12:46:31.947355  1385 net.cpp:150] Setting up conv7_2_mbox_loc_perm
I0705 12:46:31.947361  1385 net.cpp:157] Top shape: 8 5 5 24 (4800)
I0705 12:46:31.947363  1385 net.cpp:165] Memory required for data: 1982111072
I0705 12:46:31.947366  1385 layer_factory.hpp:77] Creating layer conv7_2_mbox_loc_flat
I0705 12:46:31.947394  1385 net.cpp:100] Creating Layer conv7_2_mbox_loc_flat
I0705 12:46:31.947399  1385 net.cpp:434] conv7_2_mbox_loc_flat <- conv7_2_mbox_loc_perm
I0705 12:46:31.947405  1385 net.cpp:408] conv7_2_mbox_loc_flat -> conv7_2_mbox_loc_flat
I0705 12:46:31.947438  1385 net.cpp:150] Setting up conv7_2_mbox_loc_flat
I0705 12:46:31.947443  1385 net.cpp:157] Top shape: 8 600 (4800)
I0705 12:46:31.947445  1385 net.cpp:165] Memory required for data: 1982130272
I0705 12:46:31.947448  1385 layer_factory.hpp:77] Creating layer conv7_2_mbox_conf
I0705 12:46:31.947460  1385 net.cpp:100] Creating Layer conv7_2_mbox_conf
I0705 12:46:31.947465  1385 net.cpp:434] conv7_2_mbox_conf <- conv7_2_conv7_2_relu_0_split_2
I0705 12:46:31.947474  1385 net.cpp:408] conv7_2_mbox_conf -> conv7_2_mbox_conf
I0705 12:46:31.949136  1385 net.cpp:150] Setting up conv7_2_mbox_conf
I0705 12:46:31.949156  1385 net.cpp:157] Top shape: 8 12 5 5 (2400)
I0705 12:46:31.949158  1385 net.cpp:165] Memory required for data: 1982139872
I0705 12:46:31.949167  1385 layer_factory.hpp:77] Creating layer conv7_2_mbox_conf_perm
I0705 12:46:31.949177  1385 net.cpp:100] Creating Layer conv7_2_mbox_conf_perm
I0705 12:46:31.949183  1385 net.cpp:434] conv7_2_mbox_conf_perm <- conv7_2_mbox_conf
I0705 12:46:31.949193  1385 net.cpp:408] conv7_2_mbox_conf_perm -> conv7_2_mbox_conf_perm
I0705 12:46:31.949308  1385 net.cpp:150] Setting up conv7_2_mbox_conf_perm
I0705 12:46:31.949313  1385 net.cpp:157] Top shape: 8 5 5 12 (2400)
I0705 12:46:31.949316  1385 net.cpp:165] Memory required for data: 1982149472
I0705 12:46:31.949319  1385 layer_factory.hpp:77] Creating layer conv7_2_mbox_conf_flat
I0705 12:46:31.949327  1385 net.cpp:100] Creating Layer conv7_2_mbox_conf_flat
I0705 12:46:31.949331  1385 net.cpp:434] conv7_2_mbox_conf_flat <- conv7_2_mbox_conf_perm
I0705 12:46:31.949337  1385 net.cpp:408] conv7_2_mbox_conf_flat -> conv7_2_mbox_conf_flat
I0705 12:46:31.949368  1385 net.cpp:150] Setting up conv7_2_mbox_conf_flat
I0705 12:46:31.949373  1385 net.cpp:157] Top shape: 8 300 (2400)
I0705 12:46:31.949375  1385 net.cpp:165] Memory required for data: 1982159072
I0705 12:46:31.949378  1385 layer_factory.hpp:77] Creating layer conv7_2_mbox_priorbox
I0705 12:46:31.949389  1385 net.cpp:100] Creating Layer conv7_2_mbox_priorbox
I0705 12:46:31.949394  1385 net.cpp:434] conv7_2_mbox_priorbox <- conv7_2_conv7_2_relu_0_split_3
I0705 12:46:31.949400  1385 net.cpp:434] conv7_2_mbox_priorbox <- data_data_0_split_4
I0705 12:46:31.949409  1385 net.cpp:408] conv7_2_mbox_priorbox -> conv7_2_mbox_priorbox
I0705 12:46:31.949447  1385 net.cpp:150] Setting up conv7_2_mbox_priorbox
I0705 12:46:31.949452  1385 net.cpp:157] Top shape: 1 2 600 (1200)
I0705 12:46:31.949455  1385 net.cpp:165] Memory required for data: 1982163872
I0705 12:46:31.949456  1385 layer_factory.hpp:77] Creating layer conv8_2_mbox_loc
I0705 12:46:31.949471  1385 net.cpp:100] Creating Layer conv8_2_mbox_loc
I0705 12:46:31.949476  1385 net.cpp:434] conv8_2_mbox_loc <- conv8_2_conv8_2_relu_0_split_1
I0705 12:46:31.949482  1385 net.cpp:408] conv8_2_mbox_loc -> conv8_2_mbox_loc
I0705 12:46:31.951167  1385 net.cpp:150] Setting up conv8_2_mbox_loc
I0705 12:46:31.951186  1385 net.cpp:157] Top shape: 8 16 3 3 (1152)
I0705 12:46:31.951189  1385 net.cpp:165] Memory required for data: 1982168480
I0705 12:46:31.951211  1385 layer_factory.hpp:77] Creating layer conv8_2_mbox_loc_perm
I0705 12:46:31.951223  1385 net.cpp:100] Creating Layer conv8_2_mbox_loc_perm
I0705 12:46:31.951228  1385 net.cpp:434] conv8_2_mbox_loc_perm <- conv8_2_mbox_loc
I0705 12:46:31.951236  1385 net.cpp:408] conv8_2_mbox_loc_perm -> conv8_2_mbox_loc_perm
I0705 12:46:31.951355  1385 net.cpp:150] Setting up conv8_2_mbox_loc_perm
I0705 12:46:31.951361  1385 net.cpp:157] Top shape: 8 3 3 16 (1152)
I0705 12:46:31.951364  1385 net.cpp:165] Memory required for data: 1982173088
I0705 12:46:31.951367  1385 layer_factory.hpp:77] Creating layer conv8_2_mbox_loc_flat
I0705 12:46:31.951375  1385 net.cpp:100] Creating Layer conv8_2_mbox_loc_flat
I0705 12:46:31.951380  1385 net.cpp:434] conv8_2_mbox_loc_flat <- conv8_2_mbox_loc_perm
I0705 12:46:31.951406  1385 net.cpp:408] conv8_2_mbox_loc_flat -> conv8_2_mbox_loc_flat
I0705 12:46:31.951439  1385 net.cpp:150] Setting up conv8_2_mbox_loc_flat
I0705 12:46:31.951444  1385 net.cpp:157] Top shape: 8 144 (1152)
I0705 12:46:31.951447  1385 net.cpp:165] Memory required for data: 1982177696
I0705 12:46:31.951449  1385 layer_factory.hpp:77] Creating layer conv8_2_mbox_conf
I0705 12:46:31.951462  1385 net.cpp:100] Creating Layer conv8_2_mbox_conf
I0705 12:46:31.951467  1385 net.cpp:434] conv8_2_mbox_conf <- conv8_2_conv8_2_relu_0_split_2
I0705 12:46:31.951474  1385 net.cpp:408] conv8_2_mbox_conf -> conv8_2_mbox_conf
I0705 12:46:31.953083  1385 net.cpp:150] Setting up conv8_2_mbox_conf
I0705 12:46:31.953100  1385 net.cpp:157] Top shape: 8 8 3 3 (576)
I0705 12:46:31.953102  1385 net.cpp:165] Memory required for data: 1982180000
I0705 12:46:31.953112  1385 layer_factory.hpp:77] Creating layer conv8_2_mbox_conf_perm
I0705 12:46:31.953124  1385 net.cpp:100] Creating Layer conv8_2_mbox_conf_perm
I0705 12:46:31.953128  1385 net.cpp:434] conv8_2_mbox_conf_perm <- conv8_2_mbox_conf
I0705 12:46:31.953138  1385 net.cpp:408] conv8_2_mbox_conf_perm -> conv8_2_mbox_conf_perm
I0705 12:46:31.953253  1385 net.cpp:150] Setting up conv8_2_mbox_conf_perm
I0705 12:46:31.953258  1385 net.cpp:157] Top shape: 8 3 3 8 (576)
I0705 12:46:31.953261  1385 net.cpp:165] Memory required for data: 1982182304
I0705 12:46:31.953264  1385 layer_factory.hpp:77] Creating layer conv8_2_mbox_conf_flat
I0705 12:46:31.953271  1385 net.cpp:100] Creating Layer conv8_2_mbox_conf_flat
I0705 12:46:31.953276  1385 net.cpp:434] conv8_2_mbox_conf_flat <- conv8_2_mbox_conf_perm
I0705 12:46:31.953280  1385 net.cpp:408] conv8_2_mbox_conf_flat -> conv8_2_mbox_conf_flat
I0705 12:46:31.953306  1385 net.cpp:150] Setting up conv8_2_mbox_conf_flat
I0705 12:46:31.953312  1385 net.cpp:157] Top shape: 8 72 (576)
I0705 12:46:31.953315  1385 net.cpp:165] Memory required for data: 1982184608
I0705 12:46:31.953317  1385 layer_factory.hpp:77] Creating layer conv8_2_mbox_priorbox
I0705 12:46:31.953325  1385 net.cpp:100] Creating Layer conv8_2_mbox_priorbox
I0705 12:46:31.953328  1385 net.cpp:434] conv8_2_mbox_priorbox <- conv8_2_conv8_2_relu_0_split_3
I0705 12:46:31.953333  1385 net.cpp:434] conv8_2_mbox_priorbox <- data_data_0_split_5
I0705 12:46:31.953341  1385 net.cpp:408] conv8_2_mbox_priorbox -> conv8_2_mbox_priorbox
I0705 12:46:31.953372  1385 net.cpp:150] Setting up conv8_2_mbox_priorbox
I0705 12:46:31.953377  1385 net.cpp:157] Top shape: 1 2 144 (288)
I0705 12:46:31.953380  1385 net.cpp:165] Memory required for data: 1982185760
I0705 12:46:31.953383  1385 layer_factory.hpp:77] Creating layer conv9_2_mbox_loc
I0705 12:46:31.953394  1385 net.cpp:100] Creating Layer conv9_2_mbox_loc
I0705 12:46:31.953398  1385 net.cpp:434] conv9_2_mbox_loc <- conv9_2_conv9_2_relu_0_split_0
I0705 12:46:31.953404  1385 net.cpp:408] conv9_2_mbox_loc -> conv9_2_mbox_loc
I0705 12:46:31.955468  1385 net.cpp:150] Setting up conv9_2_mbox_loc
I0705 12:46:31.955498  1385 net.cpp:157] Top shape: 8 16 1 1 (128)
I0705 12:46:31.955500  1385 net.cpp:165] Memory required for data: 1982186272
I0705 12:46:31.955512  1385 layer_factory.hpp:77] Creating layer conv9_2_mbox_loc_perm
I0705 12:46:31.955528  1385 net.cpp:100] Creating Layer conv9_2_mbox_loc_perm
I0705 12:46:31.955535  1385 net.cpp:434] conv9_2_mbox_loc_perm <- conv9_2_mbox_loc
I0705 12:46:31.955543  1385 net.cpp:408] conv9_2_mbox_loc_perm -> conv9_2_mbox_loc_perm
I0705 12:46:31.955663  1385 net.cpp:150] Setting up conv9_2_mbox_loc_perm
I0705 12:46:31.955669  1385 net.cpp:157] Top shape: 8 1 1 16 (128)
I0705 12:46:31.955672  1385 net.cpp:165] Memory required for data: 1982186784
I0705 12:46:31.955675  1385 layer_factory.hpp:77] Creating layer conv9_2_mbox_loc_flat
I0705 12:46:31.955684  1385 net.cpp:100] Creating Layer conv9_2_mbox_loc_flat
I0705 12:46:31.955688  1385 net.cpp:434] conv9_2_mbox_loc_flat <- conv9_2_mbox_loc_perm
I0705 12:46:31.955693  1385 net.cpp:408] conv9_2_mbox_loc_flat -> conv9_2_mbox_loc_flat
I0705 12:46:31.955751  1385 net.cpp:150] Setting up conv9_2_mbox_loc_flat
I0705 12:46:31.955760  1385 net.cpp:157] Top shape: 8 16 (128)
I0705 12:46:31.955762  1385 net.cpp:165] Memory required for data: 1982187296
I0705 12:46:31.955765  1385 layer_factory.hpp:77] Creating layer conv9_2_mbox_conf
I0705 12:46:31.955778  1385 net.cpp:100] Creating Layer conv9_2_mbox_conf
I0705 12:46:31.955785  1385 net.cpp:434] conv9_2_mbox_conf <- conv9_2_conv9_2_relu_0_split_1
I0705 12:46:31.955792  1385 net.cpp:408] conv9_2_mbox_conf -> conv9_2_mbox_conf
I0705 12:46:31.957826  1385 net.cpp:150] Setting up conv9_2_mbox_conf
I0705 12:46:31.957855  1385 net.cpp:157] Top shape: 8 8 1 1 (64)
I0705 12:46:31.957859  1385 net.cpp:165] Memory required for data: 1982187552
I0705 12:46:31.957872  1385 layer_factory.hpp:77] Creating layer conv9_2_mbox_conf_perm
I0705 12:46:31.957885  1385 net.cpp:100] Creating Layer conv9_2_mbox_conf_perm
I0705 12:46:31.957891  1385 net.cpp:434] conv9_2_mbox_conf_perm <- conv9_2_mbox_conf
I0705 12:46:31.957904  1385 net.cpp:408] conv9_2_mbox_conf_perm -> conv9_2_mbox_conf_perm
I0705 12:46:31.958051  1385 net.cpp:150] Setting up conv9_2_mbox_conf_perm
I0705 12:46:31.958058  1385 net.cpp:157] Top shape: 8 1 1 8 (64)
I0705 12:46:31.958062  1385 net.cpp:165] Memory required for data: 1982187808
I0705 12:46:31.958065  1385 layer_factory.hpp:77] Creating layer conv9_2_mbox_conf_flat
I0705 12:46:31.958071  1385 net.cpp:100] Creating Layer conv9_2_mbox_conf_flat
I0705 12:46:31.958076  1385 net.cpp:434] conv9_2_mbox_conf_flat <- conv9_2_mbox_conf_perm
I0705 12:46:31.958082  1385 net.cpp:408] conv9_2_mbox_conf_flat -> conv9_2_mbox_conf_flat
I0705 12:46:31.958111  1385 net.cpp:150] Setting up conv9_2_mbox_conf_flat
I0705 12:46:31.958117  1385 net.cpp:157] Top shape: 8 8 (64)
I0705 12:46:31.958118  1385 net.cpp:165] Memory required for data: 1982188064
I0705 12:46:31.958122  1385 layer_factory.hpp:77] Creating layer conv9_2_mbox_priorbox
I0705 12:46:31.958132  1385 net.cpp:100] Creating Layer conv9_2_mbox_priorbox
I0705 12:46:31.958135  1385 net.cpp:434] conv9_2_mbox_priorbox <- conv9_2_conv9_2_relu_0_split_2
I0705 12:46:31.958139  1385 net.cpp:434] conv9_2_mbox_priorbox <- data_data_0_split_6
I0705 12:46:31.958148  1385 net.cpp:408] conv9_2_mbox_priorbox -> conv9_2_mbox_priorbox
I0705 12:46:31.958187  1385 net.cpp:150] Setting up conv9_2_mbox_priorbox
I0705 12:46:31.958194  1385 net.cpp:157] Top shape: 1 2 16 (32)
I0705 12:46:31.958196  1385 net.cpp:165] Memory required for data: 1982188192
I0705 12:46:31.958199  1385 layer_factory.hpp:77] Creating layer mbox_loc
I0705 12:46:31.958207  1385 net.cpp:100] Creating Layer mbox_loc
I0705 12:46:31.958212  1385 net.cpp:434] mbox_loc <- conv4_3_norm_mbox_loc_flat
I0705 12:46:31.958217  1385 net.cpp:434] mbox_loc <- fc7_mbox_loc_flat
I0705 12:46:31.958222  1385 net.cpp:434] mbox_loc <- conv6_2_mbox_loc_flat
I0705 12:46:31.958226  1385 net.cpp:434] mbox_loc <- conv7_2_mbox_loc_flat
I0705 12:46:31.958231  1385 net.cpp:434] mbox_loc <- conv8_2_mbox_loc_flat
I0705 12:46:31.958235  1385 net.cpp:434] mbox_loc <- conv9_2_mbox_loc_flat
I0705 12:46:31.958240  1385 net.cpp:408] mbox_loc -> mbox_loc
I0705 12:46:31.958274  1385 net.cpp:150] Setting up mbox_loc
I0705 12:46:31.958279  1385 net.cpp:157] Top shape: 8 34928 (279424)
I0705 12:46:31.958283  1385 net.cpp:165] Memory required for data: 1983305888
I0705 12:46:31.958286  1385 layer_factory.hpp:77] Creating layer mbox_conf
I0705 12:46:31.958292  1385 net.cpp:100] Creating Layer mbox_conf
I0705 12:46:31.958297  1385 net.cpp:434] mbox_conf <- conv4_3_norm_mbox_conf_flat
I0705 12:46:31.958302  1385 net.cpp:434] mbox_conf <- fc7_mbox_conf_flat
I0705 12:46:31.958305  1385 net.cpp:434] mbox_conf <- conv6_2_mbox_conf_flat
I0705 12:46:31.958310  1385 net.cpp:434] mbox_conf <- conv7_2_mbox_conf_flat
I0705 12:46:31.958314  1385 net.cpp:434] mbox_conf <- conv8_2_mbox_conf_flat
I0705 12:46:31.958318  1385 net.cpp:434] mbox_conf <- conv9_2_mbox_conf_flat
I0705 12:46:31.958323  1385 net.cpp:408] mbox_conf -> mbox_conf
I0705 12:46:31.958376  1385 net.cpp:150] Setting up mbox_conf
I0705 12:46:31.958384  1385 net.cpp:157] Top shape: 8 17464 (139712)
I0705 12:46:31.958386  1385 net.cpp:165] Memory required for data: 1983864736
I0705 12:46:31.958390  1385 layer_factory.hpp:77] Creating layer mbox_priorbox
I0705 12:46:31.958397  1385 net.cpp:100] Creating Layer mbox_priorbox
I0705 12:46:31.958402  1385 net.cpp:434] mbox_priorbox <- conv4_3_norm_mbox_priorbox
I0705 12:46:31.958406  1385 net.cpp:434] mbox_priorbox <- fc7_mbox_priorbox
I0705 12:46:31.958411  1385 net.cpp:434] mbox_priorbox <- conv6_2_mbox_priorbox
I0705 12:46:31.958415  1385 net.cpp:434] mbox_priorbox <- conv7_2_mbox_priorbox
I0705 12:46:31.958420  1385 net.cpp:434] mbox_priorbox <- conv8_2_mbox_priorbox
I0705 12:46:31.958423  1385 net.cpp:434] mbox_priorbox <- conv9_2_mbox_priorbox
I0705 12:46:31.958428  1385 net.cpp:408] mbox_priorbox -> mbox_priorbox
I0705 12:46:31.958458  1385 net.cpp:150] Setting up mbox_priorbox
I0705 12:46:31.958467  1385 net.cpp:157] Top shape: 1 2 34928 (69856)
I0705 12:46:31.958469  1385 net.cpp:165] Memory required for data: 1984144160
I0705 12:46:31.958472  1385 layer_factory.hpp:77] Creating layer mbox_conf_reshape
I0705 12:46:31.958479  1385 net.cpp:100] Creating Layer mbox_conf_reshape
I0705 12:46:31.958484  1385 net.cpp:434] mbox_conf_reshape <- mbox_conf
I0705 12:46:31.958492  1385 net.cpp:408] mbox_conf_reshape -> mbox_conf_reshape
I0705 12:46:31.958536  1385 net.cpp:150] Setting up mbox_conf_reshape
I0705 12:46:31.958544  1385 net.cpp:157] Top shape: 8 8732 2 (139712)
I0705 12:46:31.958547  1385 net.cpp:165] Memory required for data: 1984703008
I0705 12:46:31.958550  1385 layer_factory.hpp:77] Creating layer mbox_conf_softmax
I0705 12:46:31.958557  1385 net.cpp:100] Creating Layer mbox_conf_softmax
I0705 12:46:31.958560  1385 net.cpp:434] mbox_conf_softmax <- mbox_conf_reshape
I0705 12:46:31.958570  1385 net.cpp:408] mbox_conf_softmax -> mbox_conf_softmax
I0705 12:46:31.958916  1385 net.cpp:150] Setting up mbox_conf_softmax
I0705 12:46:31.958930  1385 net.cpp:157] Top shape: 8 8732 2 (139712)
I0705 12:46:31.958935  1385 net.cpp:165] Memory required for data: 1985261856
I0705 12:46:31.958938  1385 layer_factory.hpp:77] Creating layer mbox_conf_flatten
I0705 12:46:31.958945  1385 net.cpp:100] Creating Layer mbox_conf_flatten
I0705 12:46:31.958950  1385 net.cpp:434] mbox_conf_flatten <- mbox_conf_softmax
I0705 12:46:31.958957  1385 net.cpp:408] mbox_conf_flatten -> mbox_conf_flatten
I0705 12:46:31.958986  1385 net.cpp:150] Setting up mbox_conf_flatten
I0705 12:46:31.958992  1385 net.cpp:157] Top shape: 8 17464 (139712)
I0705 12:46:31.958994  1385 net.cpp:165] Memory required for data: 1985820704
I0705 12:46:31.958997  1385 layer_factory.hpp:77] Creating layer detection_out
I0705 12:46:31.959015  1385 net.cpp:100] Creating Layer detection_out
I0705 12:46:31.959019  1385 net.cpp:434] detection_out <- mbox_loc
I0705 12:46:31.959023  1385 net.cpp:434] detection_out <- mbox_conf_flatten
I0705 12:46:31.959028  1385 net.cpp:434] detection_out <- mbox_priorbox
I0705 12:46:31.959034  1385 net.cpp:408] detection_out -> detection_out
W0705 12:46:31.959081  1385 detection_output_layer.cpp:49] Failed to create directory: /media/DT_Moyan/PG/caffe-ssd/data/VOCdevkit/results/VOC2007/SSD_300x300/Main
I0705 12:46:31.959645  1385 net.cpp:150] Setting up detection_out
I0705 12:46:31.959653  1385 net.cpp:157] Top shape: 1 1 1 7 (7)
I0705 12:46:31.959657  1385 net.cpp:165] Memory required for data: 1985820732
I0705 12:46:31.959661  1385 layer_factory.hpp:77] Creating layer detection_eval
I0705 12:46:31.959669  1385 net.cpp:100] Creating Layer detection_eval
I0705 12:46:31.959672  1385 net.cpp:434] detection_eval <- detection_out
I0705 12:46:31.959677  1385 net.cpp:434] detection_eval <- label
I0705 12:46:31.959682  1385 net.cpp:408] detection_eval -> detection_eval
I0705 12:46:31.959913  1385 net.cpp:150] Setting up detection_eval
I0705 12:46:31.959923  1385 net.cpp:157] Top shape: 1 1 2 5 (10)
I0705 12:46:31.959926  1385 net.cpp:165] Memory required for data: 1985820772
I0705 12:46:31.959949  1385 net.cpp:228] detection_eval does not need backward computation.
I0705 12:46:31.959955  1385 net.cpp:228] detection_out does not need backward computation.
I0705 12:46:31.959959  1385 net.cpp:228] mbox_conf_flatten does not need backward computation.
I0705 12:46:31.959961  1385 net.cpp:228] mbox_conf_softmax does not need backward computation.
…
